refinement_model.pth (torch_old, 314984 bytes, 16 tensors)

layers.0.0.weight f4 [64, 5, 3, 3]
00000000: c5cc 85bd 23ab 793d 503b 973d 7ae8 883d
00000010: f045 e9bd 7f4a ac3c 63d5 5d3d 8208 4bbd
00000020: e961 dcbc 7020 e3bd 504d 273d 7628 d2bd
00000030: c562 ca3d 2039 003e de33 873d a6a9 db3b
00000040: 5f99 bcbc e212 783d 850e 0fbe ca1f 593d
00000050: ab7a f6bc 9c31 48bd bac7 54bd c686 623d
00000060: d2b0 993d 554c ae3c 9192 c1bd f094 183c
00000070: 0c59 c33d e5f4 cf3d 054f 973d 9cf4 b3bd
00000080: 9691 01bd 8370 883d fe60 ab3d aaac 1b3c
00000090: de39 0a3d 46ff 6b3d cc00 aebd 9e0b e9bd
000000a0: 47a7 8c3b b45b 923d bbd4 043e 3150 123e
000000b0: e855 073e 72c2 0b3e fadd b53d e30a b7bc
000000c0: 4da3 51bd 333a 64bd 60d6 bbbd c4aa 1c3e
000000d0: c55b fc3d de44 01be a929 adbd dfcc 663d
000000e0: 1269 1abd 1c7a 23bc eebb 063e d9ec 15be
000000f0: 2d79 72bd f19d ac3d 79b1 dbbd 2066 ff3d
00000100: c97d c6bd 93d1 2fbd ec6b b53d 4104 46bc
00000110: 96ce a73d a5a9 18be 7901 8b3d 60ef 0cbd
00000120: 1619 a0bd ca19 a0bd 11e6 243e 69d6 abbc
00000130: a09c 103e 15b0 02bd 8b90 a43d dbb0 9a3d
00000140: 8f85 04bd 86bd ebbd 5525 053e fbb5 debc
00000150: ff38 a03d 4338 e23c b3fd 013e b09d 353d
00000160: 4e6d b83d f6bb b5bd c33f dc3d 76c2 ec3a
00000170: ee59 023d f177 c7bc 628e 04be 02ad 1dbe
00000180: 9cba 0bbe 0226 dfbd 53f5 033e 0d59 0b3e
00000190: e0e0 1cbd 3bad ec3d 5f7a ef3c 908f 0dbb
000001a0: e72c e1bd 352a 793d 7d55 12be f945 b1bd
000001b0: 3937 a43d 995e babd 619d d9bd c777 c83b
000001c0: 4950 94bd cb0d e83d 2854 b03d c33e 39bd
000001d0: 1281 0fbd 6f42 a1bd b358 a3bc e8f6 0a3e
000001e0: 2801 07bd 8830 18bd 7c88 af3d df64 f93a
000001f0: 7b83 d7bc dfbe 703d 66e5 0c3d 2ebb d23d
00000200: 0207 193d e086 293d 7e61 023e 104c 9e3d
00000210: 2b7b 9fbd f912 ff3c 5641 17be 56da c1bd
00000220: ec33 823d 7c8c 3cbd 6b7f 6e3d a20c 873c
00000230: d45c f83c 7570 36bd 9406 0fbe 4b85 d2bd
00000240: eed6 023e dbc1 9a3d 1818 873b 8db2 a4bc
00000250: e4d5 013e cc94 b63d 3035 f93d e33d a7bd
00000260: 704c 0bbd 4455 3b3d cb29 82bd 9bf9 cfbc
00000270: 7c12 043d b195 8fbd 9c76 8fbd c90e f6bd
00000280: 6b59 d4bc 3519 f8bd c12c 0a3e e9b0 36bc
00000290: e37e a9bd b50a b7bd ca34 feba 1748 12be
000002a0: 8ea7 f2bd a8d5 e23d c8dc 8fbd c854 09bd
000002b0: 43a6 bd3c de1b 0abd 2e42 d53c ce53 ba3d
000002c0: f03a a23d 160d 0bbe 07c2 413d 1cd1 d0bb
000002d0: e418 d03c c231 31bd 6677 2c3d 1d35 ffbc
000002e0: 6e0a ddbc 3ac5 a8bd 441b 05bd 5b73 43bd
000002f0: afcf 04be 2df3 253d fb9a e23b 7b44 b7bd
00000300: d962 0a3c abd4 0ebe 41b9 173d 4e0d 53bd
00000310: 5054 c33c 9322 00be 85ee 153e 6127 ba3c
00000320: 8fbf fa3d 5fb4 eb3d 5d9a d7bd 21a8 06be
00000330: 13d1 f03c 5580 b83d e6ab f4bd e4fe 833d
00000340: 38e1 debc 5d03 aeb9 17d6 ffbd d422 5b3d
00000350: e29f ac3c 3fdb fdbd 002e 053e 3cb6 8abd
00000360: d124 62bd 5be9 10bd d631 b53d 6179 79bd
00000370: 79aa 063e 2163 093e fde1 07bc f3a8 cabd
00000380: 4328 16be 4867 edbd f1ab 0bbe 5bed 8bbd
00000390: 714e cfbd 01b2 963c 3944 bcbb 8e18 cbbd
000003a0: 5275 8cbd 8283 ae3d 085f dd3d 5952 093e
000003b0: 36d8 19be 38af f63d 8412 f7bd 4924 123e
000003c0: 7d12 b2bd cb25 00be 329c 903d 1003 f83d
000003d0: f343 8cbd aa5d 9d3d d397 13be d425 27bc
000003e0: 2360 0cbc c2ed ff3d 36ce a33d fdb0 9f3d
000003f0: 3e82 163e fcc6 9fbd de7b 173b 09b7 223e
-0.06533197 0.060954224 0.0738436 0.066849664 -0.11390293 0.021031616 0.05415858 -0.04956866
-0.026902156 -0.11090171 0.040845215 -0.102616236 0.0988212 0.12521791 0.0660169 0.0067035733
-0.023022352 0.060564883 -0.13970383 0.053008832 -0.03008779 -0.048875436 -0.051948287 0.05530431
0.07504429 0.021276632 -0.094517834 0.009312853 0.09538469 0.10154132 0.07388119 -0.0878689
-0.031632982 0.06662085 0.08368109 0.009501616 0.033746593 0.057616495 -0.08496246 -0.11379169
0.004292402 0.07146397 0.12971775 0.14288403 0.13216364 0.13648394 0.08880229 -0.022344058
-0.051181126 -0.055719566 -0.09171748 0.15299517 0.12322191 -0.12623927 -0.08455212 0.056347724
-0.03769786 -0.009977844 0.13157627 -0.14641131 -0.059197593 0.084285624 -0.107272096 0.12470651
-0.0969196 -0.042924475 0.08858475 -0.012085975 0.081937 -0.14908464 0.0678739 -0.034407973
-0.07817285 -0.07817419 0.16103388 -0.020976262 0.14122248 -0.031906206 0.08035382 0.07553264
-0.032353934 -0.11510758 0.13002522 -0.027186384 0.07823371 0.027614718 0.12694435 0.044339836
0.09005223 -0.08873741 0.10754349 0.0018063325 0.031824045 -0.024349185 -0.1294494 -0.15398028
-0.13645405 -0.10895921 0.12886553 0.13608189 -0.038300395 0.115564786 0.029233156 -0.0021600462
-0.109948926 0.060831267 -0.14290424 -0.08655924 0.080183454 -0.09100074 -0.10625721 0.006117794
-0.07241876 0.11330756 0.086098015 -0.04522587 -0.0350352 -0.07873999 -0.019939756 0.1357075
-0.032960087 -0.037155658 0.08570954 0.0019027254 -0.026307812 0.05877578 0.03439846 0.10289608
0.0373602 0.041388392 0.12732503 0.077293515 -0.07787164 0.031136977 -0.14771017 -0.094654724
0.063575596 -0.046032414 0.058226984 0.016485516 0.030317701 -0.04454084 -0.13967353 -0.1027933
0.12777302 0.07556506 0.0041227452 -0.02010467 0.12679249 0.089150995 0.12168348 -0.08166101
-0.034008443 0.045735613 -0.063556276 -0.025387576 0.03224419 -0.07010973 -0.07005045 -0.12014539
-0.025921544 -0.12114183 0.13493635 -0.011150577 -0.08276155 -0.08937589 -0.0019394394 -0.14285313
-0.11848365 0.11075908 -0.070245326 -0.03352812 0.023150569 -0.033717982 0.026032533 0.09098016
0.07921398 -0.1357921 0.04730418 -0.006372584 0.025402494 -0.043260343 0.042106055 -0.031153256
-0.026982512 -0.08240743 -0.032496706 -0.047717433 -0.1296985 0.040515114 0.006915448 -0.089486085
0.008446419 -0.13948314 0.037041906 -0.05152636 0.023843914 -0.12513189 0.14641769 0.022723855
0.12243568 0.115090124 -0.10527489 -0.13150074 0.02939657 0.090088524 -0.119468495 0.06445101
-0.027207002 -0.00033190372 -0.12492006 0.05350001 0.021072332 -0.123953335 0.13005829 -0.0677304
-0.055210892 -0.035378795 0.08847396 -0.06090677 0.13150968 0.13416721 -0.008293626 -0.09895506
-0.14663796 -0.11591965 -0.13639809 -0.06832381 -0.101223834 0.018395426 -0.0057454375 -0.09916793
-0.068583146 0.08521177 0.108091414 0.1341032 -0.15023884 0.12045139 -0.120640785 0.14271654
-0.086949326 -0.12514417 0.07061042 0.12109959 -0.06848898 0.076838806 -0.14413385 -0.01020189
-0.008567843 0.124965206 0.07998316 0.0779743 0.14698121 -0.07801625 0.0023114602 0.15890135

layers.0.1.weight f4 [64]
00000000: 465a 803f 491a 803f 64d8 7e3f fa4d 803f
00000010: cd08 7f3f f53e 7e3f 1003 803f f660 7f3f
00000020: 8f89 803f 9ca6 7f3f 4d4e 803f a0ef 803f
00000030: f1ba 7f3f 696f 813f b740 7e3f 0f86 7f3f
00000040: 9286 803f c95e 803f ebe8 7f3f 38de 7f3f
00000050: 8216 803f ba0b 803f 974b 813f 5db3 803f
00000060: 4938 7f3f f1b5 7f3f 33a1 7e3f 7257 7e3f
00000070: a383 7e3f 6ccd 803f d226 7e3f 8449 803f
00000080: 9e17 7f3f 74f3 7c3f 46c1 7f3f 667a 7f3f
00000090: cc3e 803f 43a9 7f3f fced 7e3f c5b4 803f
000000a0: 9044 803f 142f 803f 9b8d 7d3f 63e1 7f3f
000000b0: 53d3 7f3f ceb2 803f 0417 813f ef9a 803f
000000c0: e30e 7f3f 4527 7f3f 966d 7e3f ba78 803f
000000d0: d4d7 7e3f d196 7f3f 6902 7e3f bf91 803f
000000e0: f434 813f 9e81 7e3f 9b56 803f bc54 7e3f
000000f0: 7d64 7f3f 7f4f 803f d206 813f 855c 813f
1.0027549 1.0008022 0.99548936 1.0023797 0.99622804 0.99314815 1.0000935 0.99757326
1.004198 0.998636 1.0023896 1.0073128 0.99894625 1.0112125 0.99317497 0.9981393
1.0041068 1.0028926 0.9996478 0.99948454 1.0006869 1.0003579 1.0101193 1.0054737
0.9969526 0.99886996 0.9946472 0.9935218 0.9941961 1.006269 0.99277985 1.0022435
0.9964541 0.9880898 0.99904287 0.9979614 1.0019164 0.9986765 0.99581885 1.0055166
1.0020924 1.0014367 0.990442 0.9995329 0.9993183 1.0054567 1.0085149 1.0047282
0.9963209 0.99669296 0.99385965 1.0036843 0.9954808 0.998395 0.9922243 1.0044478
1.0094285 0.9941653 1.002643 0.99348044 0.9976271 1.002426 1.0080206 1.010636

layers.0.1.bias f4 [64]
00000000: 2c0e 8fbc 72e7 f5bb 65e9 27bb 7ce6 8f3b
00000010: 58bf c9ba 0f7d 0abc 14e1 3eb8 12f2 feba
00000020: d430 c7ba 167e 27bc 4023 95ba 6c18 773b
00000030: 5618 d9bb 640b 59bc 84db 7dbb e2ee 333b
00000040: c64b 7dbc 00bb 603b 7a95 64bb f0ff 1abb
00000050: 12a7 1d3b 229c 36bb 1e63 7bb8 b83b 0cba
00000060: fa89 a1b9 a42e e6ba 94d4 d2ba fb91 9abb
00000070: 6329 cebb bd7e 11bc 7909 55bb 72a6 1f3b
00000080: 94c9 b7b9 a366 07bc eb32 f6bb e355 53bb
00000090: a6fc 963b 39b1 0cbb 0f81 64b7 9504 02bc
000000a0: 6d0b cf3a bbae 5cb8 6687 10bc 4289 23bc
000000b0: bd97 53bb 9d45 37bc 5909 0e3c 4ea7 2bbc
000000c0: a422 93bb 91f6 35bb ef7c 8cba 13c7 c83b
000000d0: 1aca 9dbb 6c41 8a3a 1be4 96bb f554 5d3b
000000e0: d162 dbbb f46d bbbb f128 b639 cbc7 52ba
000000f0: e412 21b9 1013 dc3a df2d 8bbb beb1 bfbb
-0.017462812 -0.007504397 -0.0025621292 0.0043914896 -0.0015392108 -0.008452668 -4.550915e-05 -0.0019450805
-0.0015197047 -0.010222932 -0.0011378303 0.0037703766 -0.0066252155 -0.013247345 -0.0038735578 0.0027455618
-0.01545996 0.0034291148 -0.0034879134 -0.0023651086 0.002405588 -0.0027864059 -5.9935373e-05 -0.0005349475
-0.00030811114 -0.0017561507 -0.0016085082 -0.0047171093 -0.006291555 -0.008880314 -0.0032506867 0.0024360684
-0.00035054667 -0.008264217 -0.007513394 -0.0032247237 0.0046077548 -0.0021467938 -1.3619908e-05 -0.007935663
0.0015796252 -5.2614818e-05 -0.008821344 -0.009981455 -0.0032286488 -0.011186031 0.008669221 -0.0104769
-0.0044902135 -0.0027765373 -0.0010718385 0.006127247 -0.004815352 0.0010548062 -0.004604829 0.0033772562
-0.0066951294 -0.0057198945 0.0003474425 -0.0008040636 -0.00015361194 0.0016790349 -0.0042474116 -0.005850046

layers.0.1.running_mean f4 [64]
00000000: fbb7 ae3e a5f7 6f3e 3a98 cabc 70a8 5ebe
00000010: e4d1 86be 7666 373e 8760 b6bd 594b 53be
00000020: b0bd 85be 1450 123f 4434 8e3e 9346 adbe
00000030: 6402 f0bd 3548 a93e e1d8 393e 19dd 24be
00000040: 8edd 843e 8997 26bf a9d3 87be 3989 88bc
00000050: dc97 74bd 1dfe 13be e81b a93e 6ca5 4fbb
00000060: 6737 78be ae87 f0be 9200 c83e 5a43 203b
00000070: 8070 d63e f8a4 973e 30fa 8a3b 0cff 5b3e
00000080: 98aa 1ebe 06e1 92be 2c9e cdbc 38c7 19be
00000090: ff49 a53e 4770 023e c3c9 fdbd add6 993e
000000a0: d0ea aabd 6acf 863e b394 743e 55e6 9b3e
000000b0: abbb d6bc ee79 af3e 0750 c73e 1acf 9a3e
000000c0: db58 c6bd 7544 083d f588 ce3e 9a21 ef3d
000000d0: 9a57 80be 203d 59be a098 f03e 2a1c 81be
000000e0: 83bf f03e 94d9 c6be abc3 54be 6d65 403e
000000f0: f19b 1ebd 7eb3 d8bd 2d03 80be 7bea ac3e
0.3412474 0.23434313 -0.02473079 -0.21743941 -0.2633201 0.1791018 -0.0890513 -0.20634212
-0.26121283 0.5715344 0.2777425 -0.33842906 -0.11719206 0.33062902 0.18149139 -0.16099967
0.25950283 -0.65074974 -0.2652867 -0.016666995 -0.059715137 -0.14452405 0.33029103 -0.0031684292
-0.24239884 -0.46978515 0.39062935 0.0024454207 0.41882706 0.2961805 0.0042412505 0.21484011
-0.15494764 -0.28687304 -0.025099836 -0.15017402 0.32283017 0.12738143 -0.123919986 0.30046597
-0.08345568 0.2633012 0.23884849 0.30449167 -0.026212534 0.34272712 0.38928244 0.3023613
-0.096849166 0.03326841 0.40338865 0.11676331 -0.25066835 -0.21214724 0.46991444 -0.252168
0.47021112 -0.38837874 -0.20777766 0.18788691 -0.038722936 -0.105811104 -0.25002423 0.33772644

layers.0.1.running_var f4 [64]
00000000: 411c d73d 595b 5d3d bc99 043d ae28 ad3c
00000010: eb04 d43c c586 8a3d 0fcc bf3b 2c74 a63c
00000020: bdd1 9c3d 325a d13d 89b3 473d 19a8 383d
00000030: f9bb 0c3e 5a5a d43d 399e a53c 4847 873d
00000040: 6ec5 a13d 4c57 0e3e c8b4 5f3e 9841 9d3c
00000050: 750d 8c3d eb6b 943d 1cac 713d a87d 153c
00000060: 2ca1 093d 88be a93d 94ec a03d b1d6 a93d
00000070: 3828 6b3d 5f47 9b3d 75b0 b93b 1bdd 8b3c
00000080: d615 803c c5c4 063d 6406 c43d 5370 f43c
00000090: 1464 173d 80a3 423d 0f76 8f3d 9b1e 913d
000000a0: 3f4c 5e3c 54e5 313d f7e2 913d 7479 663d
000000b0: a214 7c3d b956 d13d 8239 8a3d 8684 983d
000000c0: 305d a83c 51cc 2a3c 21c9 893d 45f4 c63c
000000d0: 1eb8 ce3c 2b53 f83c e177 953d d44a fa3c
000000e0: 60e8 0c3e c82b 663d 14c5 653d 7814 ed3c
000000f0: 4d27 fe3c af06 c83d dcd7 063d a351 cc3d
0.10503436 0.054042194 0.032373175 0.021137562 0.025881251 0.067639865 0.005853183 0.020319067
0.07657192 0.102222815 0.048755202 0.045082185 0.13743581 0.10368796 0.020217048 0.06605393
0.07898985 0.13900489 0.21846306 0.019196317 0.06838504 0.07247146 0.059002027 0.009124197
0.03360097 0.08288294 0.07857624 0.08292902 0.057411402 0.07581972 0.0056667873 0.017073205
0.015635412 0.032902498 0.095715314 0.029838717 0.036960676 0.047519207 0.0700494 0.07085916
0.013567983 0.043431595 0.07123368 0.05626817 0.061543114 0.10221619 0.0674925 0.07447152
0.020552248 0.010424689 0.067278154 0.024286399 0.025234278 0.030313095 0.07298256 0.030553259
0.13760519 0.056194097 0.05609615 0.028940424 0.0310246 0.097669 0.032920703 0.099765085

layers.1.0.weight f4 [64, 64, 3, 3]
00000000: 2889 d03b ea01 61bc 1965 e8bc 933e 333b
00000010: 5239 cfbc 170e 083d 7e6e 4f3c 81e3 f3bc
00000020: cad1 6dbc 10e1 96bc 5a53 e6bc 572b de3c
00000030: 8ad9 7a3b eaec 773c 00f2 de3c 79d6 af3c
00000040: 518e fbbc 2b76 0c3d f5df 403c 51c6 8d3c
00000050: 57a9 1fbc a51e e0bc defb c3bc 1bf5 fd3c
00000060: 77ff 61ba dce8 cfbc 3133 9ebc d85c 863c
00000070: ee13 1ebc ae6e 0dbb a863 6cbb e550 6bba
00000080: 465d c83c 3483 ac3a 61a5 9cbc bad5 a03b
00000090: 91cb 97bc 480c e6bc 6a2f 05bb 5882 69bc
000000a0: e3ea 2f3c f2de 2339 e59a 6bbc 316d 22bd
000000b0: c396 dbbb 93bb 9e39 33ef 1c3d 9b5c e43a
000000c0: 04ae c9bc ef77 9c3c 54c8 14bd d9fc f6bc
000000d0: f38e 213d 05dc 9cbc e3a3 ae3b bb2e 36bc
000000e0: c624 613c b494 993c ed25 863a 8e03 5fbc
000000f0: 0e3d 83bb ae09 b9bc 7391 25bd 6942 b7bc
00000100: a7ef b3bc 9717 90bb bdcc 63bb cec2 0cbd
00000110: 48a7 d4bb df25 9bbc 80e5 363c 5c74 d3bb
00000120: 20f9 0dbd 88ca 27bd a8e1 063d ffa2 92bb
00000130: d132 123a 91ca e13b 72da 6abc af20 01b9
00000140: 2455 16bd b562 0f3d 3a10 5d3c c3dd 673c
00000150: 72af 4b3c 16c9 223d ef84 8f3c d00d 823c
00000160: d616 d73c 0ae4 f23c 485b d9bc bac6 85bc
00000170: 007b 9c3c 633e 05bd b3d3 d5bc 1e68 e9bc
00000180: 1e3d f13c 4bbe 353c 81fa bfbb e0ea e2bc
00000190: 14fe 10bd 522d 463c 8f8c b4bc 2127 07bd
000001a0: 4530 123c 6879 9c3c 7e8b 273c 7ad5 ea3c
000001b0: 3323 6dbc 3025 033d fbe0 323d 853b 323d
000001c0: 333e 9ebc a056 9bbb 9480 cdbc cf13 c73c
000001d0: d917 943b c454 d43c 1fe7 a5bc c154 2abb
000001e0: c7c3 3b3c 8d22 923b d17d 0abd d703 cd3c
000001f0: 18b3 9e39 398d 55bb a0bf 0e3c 670d c0bc
00000200: 5da0 083d 6d8b 39bc 17f8 753b 1ae0 7e3c
00000210: 0989 e5bc b079 d7bb 05a7 36bb 6bdf dfbb
00000220: 8269 a7bc 3f1b eab9 86da 0abd 452b 1dbd
00000230: a184 f63b 0b2d 2fbd a162 d93c 0f36 963b
00000240: bfcd 1cbd d8bf 88bb b4a9 ea3c 462e 253c
00000250: 6073 88bc c270 debc 4ee0 9bbb 7085 09bd
00000260: c5fa 243d 30bb 933c 2d43 0fbd 09c9 f7bc
00000270: 4268 0d3c 7762 5dbc f54b bf3c b457 b2bc
00000280: ecd2 c23c b2cf 153d 6f60 bebc a715 323d
00000290: 3755 bd3c 72ff 093d 3c5d 83ba ddd6 89ba
000002a0: 8ee5 24bb 9c3b 9a3c bc26 813b 4c80 e53c
000002b0: 0a5e 1c3d bdbe 013d f3db c03c 4be7 eb3c
000002c0: ad81 efbc 712b 0a3d 2595 b4bc 23b6 28bd
000002d0: 48a5 04bc 24ed f83c 4d71 c4bb ecad ac3c
000002e0: 0bf5 9a3a 691b a83b 57a5 a63c f718 f53c
000002f0: 8c43 a43c 3a24 8f3c 93c5 a03c 2db4 243c
00000300: ee9c 04bd 08b7 f13b 882f 963b 0918 c2bc
00000310: 1861 13bd 0486 b23b b608 37bc 99c4 893c
00000320: 069b 1fbd 37ae 1fbd 058c d5bc db6b 6cbb
00000330: b96b e0bc 3346 2fba b86a 31bc fac9 82bc
00000340: e8ec b93c 392b a43b 273e 883a 7b5a a43c
00000350: 24ce c93c adb2 e43c 106e 213d 4727 f63b
00000360: 9f8f a9bc fced 31bd d1f6 f5bc aa4c c2bc
00000370: 532a 3d3c de42 2abc ba6d ad3c dd90 66bc
00000380: 4259 4fba c85f fc3c 2cff 333c b352 2cbd
00000390: 0677 fdbb 1d61 2dbd 3946 b93c d78f 15bc
000003a0: 2dc6 87bc 8e2b e43c 5018 16bd ca6f 263d
000003b0: 01bc 8a3c 8394 9abc 55a7 ac3c 43e4 063d
000003c0: c1fa b0bb a07b 1bbd 998e 6e3b bae7 88bb
000003d0: 52d0 703b 37bc c9bc 62b1 9e3c 6d1e 9b3a
000003e0: 53aa d6bb 5798 953c 68a2 1dbc 5b15 123b
000003f0: a614 443c 4fc9 db3c 5363 473d 355e 94bc
0.0063640065 -0.0137333665 -0.02836852 0.002735053 -0.025295887 0.033216562 0.012660621 -0.029771568
-0.01451535 -0.018417865 -0.028115917 0.027120275 0.0038276636 0.015132168 0.027215004 0.021464573
-0.03070751 0.03429238 0.0117721455 0.017306479 -0.009744964 -0.027358362 -0.02392381 0.031000664
-0.0008621136 -0.02537959 -0.01931152 0.016401693 -0.009648306 -0.0021580863 -0.0036070142 -0.0008976593
0.024458539 0.001316166 -0.019121828 0.0049082907 -0.018529685 -0.028082028 -0.002032245 -0.014252268
0.010737154 0.00015627945 -0.014380191 -0.039654914 -0.006701322 0.00030275862 0.038314056 0.0017422618
-0.02461911 0.019100158 -0.03632386 -0.030149864 0.039442968 -0.019147882 0.0053295954 -0.01111954
0.013741678 0.018747665 0.0010234691 -0.013611687 -0.004005081 -0.022587623 -0.040421914 -0.022370534
-0.021964861 -0.0043973434 -0.0034759485 -0.034365468 -0.006489668 -0.018938957 0.0111631155 -0.00645308
-0.034661412 -0.040964633 0.032930046 -0.004474997 0.000557703 0.006890603 -0.014334308 -0.00012314574
-0.03670229 0.035006244 0.013492638 0.014151993 0.012431966 0.03974255 0.017519442 0.015875727
0.026256006 0.029649753 -0.026532784 -0.016330112 0.01910162 -0.0325302 -0.026101923 -0.02849203
0.029448088 0.011092733 -0.00585872 -0.027699888 -0.035398558 0.012095766 -0.02203968 -0.0329963
0.008922641 0.01910086 0.010226129 0.028666247 -0.014473724 0.032017887 0.04367159 0.043513793
-0.019316768 -0.004740551 -0.025085725 0.024301438 0.0045194444 0.025919326 -0.020251809 -0.0025990459
0.011460251 0.004459685 -0.033811394 0.025026245 0.00030269544 -0.0032585396 0.008712679 -0.02344389
0.03335606 -0.011324746 0.0037531906 0.01555636 -0.028019445 -0.0065757856 -0.0027870547 -0.0068320534
-0.020436052 -0.00044652258 -0.033899806 -0.038371343 0.007523135 -0.042767566 0.026536288 0.004584081
-0.038282152 -0.00417326 0.028645374 0.010081833 -0.016656578 -0.027153376 -0.004756964 -0.03357452
0.040278215 0.018033594 -0.034976173 -0.030247228 0.008630814 -0.013512245 0.023351649 -0.021770336
0.023782216 0.036575027 -0.023239342 0.04347768 0.023111923 0.033690877 -0.0010022293 -0.0010516305
-0.002516124 0.018827252 0.003941385 0.028015278 0.03817562 0.031676043 0.02354238 0.028796813
-0.029236639 0.033732835 -0.022043774 -0.041189324 -0.008096047 0.030386515 -0.005994952 0.021079026
0.0011822296 0.0051302207 0.020342512 0.02991913 0.02005174 0.017473329 0.01962546 0.010052723
-0.032376222 0.0073765554 0.004583303 -0.023693101 -0.035981268 0.005448105 -0.01117151 0.016817378
-0.0389662 -0.038984504 -0.026067743 -0.003607503 -0.027395116 -0.0006686181 -0.010828666 -0.01596545
0.022695974 0.0050100354 0.0010394499 0.020062676 0.024634428 0.02791723 0.039411604 0.0075120064
-0.020698367 -0.04343985 -0.030024918 -0.023718197 0.011545735 -0.010391919 0.021170486 -0.014072624
-0.0007909724 0.03080739 0.010986131 -0.042071056 -0.007735136 -0.042328943 0.022616493 -0.009128532
-0.01657399 0.0278528 -0.03664428 0.040633954 0.01693535 -0.018869644 0.021075884 0.03293253
-0.005400986 -0.037959695 0.0036400913 -0.0041780146 0.0036745262 -0.02462588 0.019371692 0.0011834629
-0.006551066 0.018261118 -0.00962124 0.002229056 0.011967814 0.02682939 0.048678707 -0.018111328

layers.1.1.weight f4 [64]
00000000: 6dbf 7f3f cdd7 7f3f 72b3 803f b34e 803f
00000010: 74f3 7f3f 0976 7f3f 4c97 7d3f c38a 7f3f
00000020: 3f70 803f 913e 803f 9ebe 803f b90a 803f
00000030: 24fc 7e3f 6d02 803f 0370 7f3f 018f 7f3f
00000040: 5a31 7f3f 5151 813f 2371 803f 22f0 7f3f
00000050: bb42 7b3f 31a6 7f3f 580c 803f 3ce4 803f
00000060: 8034 803f a9e2 7e3f afb6 7e3f 486c 803f
00000070: 6fd9 7d3f d022 803f dd48 7e3f 8dd0 7e3f
00000080: 9311 803f 4153 7e3f 121b 803f e8ec 7e3f
00000090: 8d0d 7f3f 4fff 7f3f 201b 803f 5330 823f
000000a0: acf1 7f3f 36e1 803f 769a 7f3f 11ad 7e3f
000000b0: 83b6 7f3f 3239 7f3f e105 803f 059d 7e3f
000000c0: d149 803f 4c74 803f e3c2 7e3f bf44 803f
000000d0: 9aa3 7f3f 0d6a 803f 7188 803f 32c7 7f3f
000000e0: cd9b 7f3f daa5 7e3f 66f7 7e3f f0bc 803f
000000f0: 21d1 813f 8331 803f a177 813f e261 803f
0.9990147 0.9993866 1.0054762 1.0024017 0.99980855 0.9978948 0.99058986 0.9982111
1.0034255 1.0019094 1.0058172 1.0003272 0.99603486 1.000074 0.9978029 0.9982758
0.9968468 1.0102941 1.0034527 0.9997579 0.981487 0.9986296 1.0003767 1.0069652
1.0016022 0.99564606 0.99497503 1.0033045 0.991599 1.0010624 0.9932993 0.99536973
1.0005363 0.99345785 1.0008261 0.9958024 0.9963005 0.99998945 1.0008278 1.0170997
0.99978137 1.0068729 0.99845064 0.9948283 0.99887866 0.9969665 1.0001794 0.9945834
1.0022527 1.0035491 0.99516124 1.002098 0.9985901 1.0032364 1.0041639 0.9991332
0.9984711 0.9947182 0.9959625 1.0057659 1.0141946 1.001511 1.0114633 1.0029871

layers.1.1.bias f4 [64]
00000000: 36c6 8fbb cb71 3dbb b6b4 c2b9 6b30 67ba
00000010: c243 b6ba ad4e 4bbb b0a9 d5bb 983b d1ba
00000020: 399c 87bb 9877 353b baee 393a 456d 0bbb
00000030: c7e4 e1ba cb1d dfba e315 32bb 158e 42bb
00000040: 5a64 fdba cc80 9b3b 79ba 67bb 9c6f cabb
00000050: 0910 e9ba f268 62bb 672c 2f3a 31ad fe3a
00000060: 9e98 593b 4664 7bbb 0a81 34bb a887 9e3a
00000070: 0407 28bb 8d04 f1bb 7f7a 01bc a629 9aba
00000080: ca54 e6b9 b6f0 efba 0328 26bb 1d5d 89bb
00000090: eae5 47bb 0e71 cdba b818 bfba 9e13 22bb
000000a0: c7e4 04bc 2ae2 8739 36cc 22bc 3d93 1abc
000000b0: 28a4 ee3a 845c ebba f024 c8b9 a55a 9dbb
000000c0: a537 2f3b 173b abbb b8b6 72bb acf1 0b3a
000000d0: 860e fcba 1aa7 ffbb 9f66 27bb 4e36 7eba
000000e0: a602 fbb9 f983 ecba 4968 5ebc 22ae d33b
000000f0: bc33 8dba 7480 8b3a 1699 013b a8b9 6b3a
-0.0043876423 -0.0028906937 -0.00037137204 -0.00088191655 -0.0013905691 -0.0031022236 -0.0065204725 -0.0015963195
-0.0041384962 0.0027689692 0.0007092763 -0.0021274847 -0.0017234319 -0.0017022429 -0.002717369 -0.0029686738
-0.0019332275 0.0047455784 -0.003535895 -0.0061778557 -0.0017781268 -0.0034547416 0.00066823367 0.0019430277
0.003320254 -0.0038359328 -0.0027542734 0.0012094872 -0.0025638947 -0.007355279 -0.0079027405 -0.001176168
-0.0004393219 -0.001830599 -0.0025353439 -0.004192008 -0.003050203 -0.0015673952 -0.001457951 -0.002473093
-0.008111185 0.00025917712 -0.009936383 -0.009434518 0.0018206881 -0.0017956649 -0.00038174493 -0.0048020654
0.0026736048 -0.00522555 -0.0037035178 0.0005338441 -0.0019230403 -0.0078019025 -0.0025543345 -0.0009697423
-0.00047876424 -0.0018044702 -0.013574668 0.0064599672 -0.0010772864 0.001064314 0.0019775084 0.00089922035

layers.1.1.running_mean f4 [64]
00000000: 492b 6e3e 7e14 90be b83b 463f 3384 183e
00000010: 93e4 23bf 8e27 1c3d a714 a43d 56f3 c0bc
00000020: 5659 193f 8846 96ba 14b2 223f 95ee af3e
00000030: d646 b7be e6b5 ce3e 3f44 b13d eee4 1fbe
00000040: f935 cebe ab1d 053f d51b 273f 25cb bc3e
00000050: 3802 f03e 74b8 fb3d 9e0e ef3d 6773 b23e
00000060: c407 3abf e3d3 0dbf b5f6 e33e 01ce 323f
00000070: d5f1 d3be d0aa 8b3f aff8 873e ce98 5a3e
00000080: 1e6d 9dbe 27db 64be f764 3b3e 535c 253f
00000090: 8c0f 9c3e e031 983e 5a8c 4cbe 7f66 83bf
000000a0: 6797 623f d396 f33e 3ca6 5c3f 7865 0d3f
000000b0: 3851 57bf f201 84bd 1382 f1bc 2e7b a83e
000000c0: f6ed 97bd 9b45 4e3e a67a 8b3d 5746 8abe
000000d0: 99ba cd3e 9695 2a3f c09f 0e3f fb50 27bf
000000e0: 8d39 a2bc e2c0 513e 942a 2a3f f0e6 06bf
000000f0: 04a0 31bf d756 ac3e 730b 04be cfd0 343e
0.232587 -0.28140634 0.77434874 0.1489418 -0.6402065 0.03812366 0.080117516 -0.023553532
0.5990194 -0.0011465112 0.63552976 0.3436171 -0.3579623 0.40373152 0.08655595 -0.15614673
-0.40275553 0.51998395 0.65276843 0.36873737 0.46876693 0.12291041 0.1167271 0.3485367
-0.726681 -0.5540144 0.4452416 0.69845587 -0.4139544 1.0911503 0.26556918 0.21347353
-0.30747312 -0.22349225 0.18300234 0.64594 0.3048061 0.29725552 -0.19975415 -1.0265654
0.8851227 0.47576007 0.86191154 0.55232954 -0.84108305 -0.064456835 -0.02948097 0.3290648
-0.07418434 0.2014374 0.06810503 -0.2700679 0.40181425 0.666345 0.5571251 -0.6535794
-0.019802833 0.20483735 0.6647122 -0.5269613 -0.6938479 0.33660004 -0.12894993 0.17657779

layers.1.1.running_var f4 [64]
00000000: e14e 473f fa8f ff3e 6530 993f 6745 f63d
00000010: f4e9 f53f 73ed 113f 01fa fd3e 19be 693e
00000020: 16bb b13e 57dc f83e ee44 6d3f 4c88 2e3f
00000030: a718 123f 57f9 da3e 5b53 c73e 1be6 3e3f
00000040: e4aa 6b3e b402 073f 0bf8 603f 95c8 1c3e
00000050: 2997 bb40 9177 483f ef2a e73e 0a02 4f3f
00000060: d024 8d3f 0ec5 183f b36b 533f 068f 223f
00000070: a941 f63d 4d30 9b3e d9a3 843f 43f5 893f
00000080: f5bc a03f 684b 1e3f 41ab 0b3f f63a 9b3e
00000090: dbfe 533f c11a d63e ab31 0c3f 491c bf40
000000a0: 76d4 393f 9a2f 533d 22b4 b33f c462 8d3f
000000b0: b0ff d13e 7244 293e 8b8e 573f da81 703e
000000c0: 2842 dd3e 3d8e 573d eeaf 0d3f 779c 993f
000000d0: b802 0f3f 9a00 7f3e cb63 ac3f bcfe 8b3d
000000e0: f099 063f ecdb 9b3f 2b22 9e3f a454 d43d
000000f0: 49d9 743e a7b1 033f 7805 0e3d 0487 823f
0.77854735 0.49914533 1.1967894 0.12024956 1.9212022 0.57002944 0.496048 0.22826423
0.34713048 0.48605606 0.92683303 0.6817672 0.57068866 0.42768356 0.38930783 0.74569863
0.23014408 0.527385 0.87878484 0.15310891 5.862202 0.78307444 0.45149943 0.80862486
1.1026859 0.5967568 0.8258621 0.63499486 0.120242424 0.30310288 1.0362502 1.0777973
1.2557665 0.6183381 0.5455819 0.3031842 0.82810754 0.41817287 0.5476329 5.972203
0.72589815 0.05155907 1.4039347 1.1045766 0.41015387 0.16530016 0.8420188 0.23487034
0.43214536 0.052625883 0.5534657 1.2000874 0.55863523 0.24902573 1.3467954 0.06835696
0.5257864 1.217649 1.2354177 0.103677064 0.23911013 0.5144295 0.034673184 1.0197453

layers.2.0.weight f4 [64, 64, 3, 3]
00000000: 8cf8 5bbc 856e 1d3d 917d 07bd a979 043c
00000010: 6fb9 193d 1461 a5ba 123c 0e3d cca4 183d
00000020: b27c 203d 7b19 e1bc 7ce5 18bc a13c 383d
00000030: a275 ab3c a682 093d a3dc 08bc d20a ddbc
00000040: 61c4 063d 9570 e73c b2e4 943c 8d96 c7bc
00000050: 79fd 953c 2464 16bd 0b5b 8ebb 4080 a4bc
00000060: 02c0 0d3d ae9e 94bc 4b81 c8bc 5590 2cbd
00000070: 98df c2bc 67db dcbb b34c 1cbb bcf7 2abd
00000080: 4650 37bd 86e7 adbc d8f3 e2bc d83a 35bc
00000090: 7137 13bc 63a3 5c3b f055 0cbd a45b c63b
000000a0: e7f1 c53c 919a 783c 3192 053c 4602 01bd
000000b0: 9d7b e93b eb80 333a 27bb 173d 2a06 8dbc
000000c0: e6f7 c7bc 98cb ba3c 942f 873a e350 d2bb
000000d0: 3dae b6ba 0646 a03c 704e 91bc 4a00 a73c
000000e0: be26 303c 2c36 afbb 7853 f5bc eb37 10bc
000000f0: 4a6a 81bc 9b50 0f3c 3ca3 073a 751d bbbc
00000100: a971 83bc 0138 2ebc b7a2 133d 62ee 813c
00000110: 613e cabc ef6e c9bc 0fe1 b73c 1ef1 05bd
00000120: c6e7 03bc eaa2 01bc 2737 103d 5818 b13b
00000130: 16c7 1dbd e644 61bc 5043 11bd f63e c43c
00000140: ed4f 1ebd 0b54 b9ba b5c5 18bb a316 d83c
00000150: 3635 113d 8db9 15bd fbed 9a3c 3d9b 21bd
00000160: 5ced a63c bec9 f0ba 6981 e6bb 2b56 a63c
00000170: 19c4 a33c 9095 aa3b 68a2 e53c 7e83 1abd
00000180: be1f f33b 7dc9 163d dee1 b73c 9a65 34bc
00000190: 61f9 323b 08af 133d 7dd1 ed3c dedb 313d
000001a0: bac1 9a3c a6a5 f93c 5559 633c dfbf a33a
000001b0: f3af 5dbc 35e3 5f3c 5918 163d 2ce3 173d
000001c0: 583e 0e3c 40d4 ed3c 8167 a23c 5555 033c
000001d0: 98b5 aa3c 54d1 2f3d f059 203d 4e0c 213c
000001e0: 9705 7a3c db9e 593c da90 a7bc ca9d 91bc
000001f0: 6e94 f9bc f73f f8bc 3b4d c0bb 8447 b73c
00000200: 0122 dcbc bb00 073d 6c5c 0ebb ad41 ba3c
00000210: be19 a7bc be4f bb3b 86e6 fcbc 4888 9d3b
00000220: 18d3 133d 97e2 a3bb 7766 e5bc 3bdb 9d3c
00000230: 717b 42bc 2b0b 19bd 094d dc3c 8ab9 be3c
00000240: b9cb a13b 487b 5dbc 4026 2c3c 7314 01bd
00000250: b2b9 993c 7a07 04bd 9629 1f3d 4c08 8438
00000260: 34fc debb 6c12 113c c19b a7bc df1e debc
00000270: 5070 19bd b2b3 45bc 3f7b 323c 97c5 b43c
00000280: 0f1a bfbc 8866 943c c57c f83c 3fd8 473c
00000290: c73a 42bc ee0f 21bd 3a7a 02bc 97d6 d43c
000002a0: 0c83 cc3c 875b 793c 80fd 153c 1bff e83c
000002b0: bb96 2ebc ec61 b53c c60d 2bbd 9b8d 25bb
000002c0: cb9f 023d 35b0 163d 4c73 23bc 68ae 04bc
000002d0: 311d 80bc 61cb 033d 634c 0f3d e156 343c
000002e0: 2131 a3bb f21f 953c c6cf dc3b 8208 c7b7
000002f0: 0cee c33c e4ca 103d 1dcf 0abd 76af 06ba
00000300: 6057 0b3d 564c 0a3a 2e2c 6bbc a5d0 523c
00000310: ab15 503c 4aeb 463c d7bf bbbc 31ab 22bc
00000320: 5dd0 0d3c 56a2 dabc 9620 debc 6075 87bc
00000330: d203 e73a 0a1e 32bd 7901 153d 30e6 b2ba
00000340: 4428 90bc 0af6 163d b486 aabb 2aa0 5b3c
00000350: 28f6 893c 6bc6 ccbb 4137 00bd 9247 82bc
00000360: 8096 9ebc c912 1c3c fd70 bc3c eae7 6abb
00000370: 42f9 aebc adb4 04b8 3b8d 833c 75c2 04bd
00000380: e909 62bb fc02 c9bb 7df9 f7bc 845c 33bd
00000390: 470a b13c cbaa 16bd bb59 be3c a8d4 0bbd
000003a0: 0929 263d 855d ac3c 98f2 f6bc cc66 f0bb
000003b0: 9a0e 853c 0244 fd39 c78d 3b3b c071 aabc
000003c0: fc7e fb39 19e4 52bb d12c e9bb 6371 8cbc
000003d0: 8c0f 9fbc b8b1 03bd 2fdc e43c e985 b13c
000003e0: abc0 0d3d 49c6 b6bc 71d2 003d 5cf8 47bc
000003f0: d13b deb8 6193 66bc c30f 8f3c b8b8 9dbc
-0.013425957 0.038435478 -0.033078734 0.008085647 0.03753036 -0.0012617433 0.034725256 0.037266538
0.03918142 -0.02747797 -0.009332057 0.044979695 0.020930115 0.03357186 -0.008353385 -0.026982699
0.032902125 0.028251925 0.018175457 -0.02436378 0.018309342 -0.036716595 -0.0043443493 -0.020080686
0.03460694 -0.01814207 -0.024475714 -0.042129833 -0.023788258 -0.006740022 -0.0023849427 -0.041740164
-0.04475429 -0.021228563 -0.027704164 -0.011061393 -0.008985386 0.0033666722 -0.034261644 0.006053405
0.0241632 0.01517357 0.0081525305 -0.03149631 0.0071253316 0.00068475184 0.037043717 -0.017214853
-0.0244102 0.02280216 0.0010313862 -0.006418334 -0.0013937425 0.01956464 -0.017737597 0.02038588
0.010751424 -0.005347034 -0.029947028 -0.008802394 -0.015797753 0.008747245 0.0005174165 -0.022841195
-0.016045408 -0.01063347 0.03604385 0.01586074 -0.024687948 -0.02458903 0.022446183 -0.03270065
-0.008050865 -0.007912377 0.035208847 0.0054045133 -0.03851994 -0.013749337 -0.035464585 0.023955803
-0.038650442 -0.0014139427 -0.0023311202 0.026377982 0.035451137 -0.03655391 0.018912306 -0.039454687
0.020376854 -0.0018370671 -0.00703447 0.02030476 0.019990968 0.0052058175 0.028031543 -0.037723057
0.0074195554 0.036813248 0.022446569 -0.011010552 0.0027309286 0.036055595 0.029030556 0.043422572
0.018891204 0.030474495 0.013876279 0.0012493095 -0.013530719 0.01366501 0.036644313 0.037081882
0.008681856 0.029031873 0.019824745 0.00801595 0.020838544 0.04292424 0.03914827 0.009829594
0.015260122 0.013282503 -0.020454813 -0.017775435 -0.030466285 -0.030303938 -0.0058685816 0.022372968
-0.026871683 0.03295968 -0.0021722568 0.022736395 -0.020398017 0.005716293 -0.03087164 0.0048075058
0.036089987 -0.005001377 -0.02800296 0.019269576 -0.011870251 -0.037364166 0.026892202 0.023281831
0.0049376157 -0.013518162 0.010507166 -0.031513643 0.018765304 -0.032233693 0.03885802 6.295796e-05
-0.0068049673 0.00885449 -0.020460011 -0.02711433 -0.037460625 -0.0120667685 0.010893642 0.022066874
-0.023327855 0.018115297 0.030332932 0.012197553 -0.011854834 -0.039321832 -0.007963711 0.02598123
0.024964832 0.015219576 0.009154677 0.028441956 -0.010656054 0.02214142 -0.041761182 -0.0025261405
0.03189067 0.036789138 -0.009976219 -0.008098222 -0.01563892 0.03217638 0.034984957 0.011007042
-0.004980222 0.01820371 0.0067386357 -2.372661e-05 0.02391722 0.03534974 -0.033888925 -0.000513784
0.034018874 0.0005275657 -0.014353795 0.012867128 0.012700479 0.012141058 -0.022918625 -0.0099285105
0.008655635 -0.026688736 -0.027115148 -0.016535461 0.001762504 -0.04348568 0.036378358 -0.0013648923
-0.017597325 0.036855735 -0.005204046 0.013404885 0.01684101 -0.006249239 -0.031302694 -0.015903268
-0.019358873 0.009525963 0.023003096 -0.0035843798 -0.02135909 -3.163952e-05 0.016058555 -0.03241201
-0.003449077 -0.006134389 -0.030270332 -0.0437894 0.021611346 -0.036783975 0.023236146 -0.03413835
0.040566478 0.021040687 -0.030144975 -0.007336473 0.016242314 0.0004830659 0.0028618441 -0.020806193
0.0004796906 -0.0032179414 -0.0071159382 -0.01714391 -0.019416593 -0.032151908 0.027937023 0.021670299
0.03460757 -0.022311347 0.031450693 -0.01220521 -0.000105969266 -0.014073224 0.01746357 -0.01925312

layers.2.1.weight f4 [64]
00000000: b9b2 813f 4337 823f c6fa 813f 60f4 803f
00000010: 1f92 813f 6487 813f eb0d 813f e3ef 813f
00000020: 32f1 803f 817b 813f 3dce 813f 3bad 803f
00000030: 8c2b 813f 32b7 803f 817a 813f 4524 823f
00000040: 3b16 823f 3451 823f 1084 813f 8379 803f
00000050: e74b 803f dc47 833f 27a0 813f 75c0 803f
00000060: fef4 803f 5537 7f3f f7ec 823f eefa 813f
00000070: 5492 823f 94b4 813f a356 813f d0e0 803f
00000080: aec7 803f 4a00 803f 2d63 803f 9e5f 803f
00000090: d811 823f 4815 803f d37b 833f 0fab 803f
000000a0: 3f2d 813f 8b72 7e3f 2054 803f 3e77 803f
000000b0: 0f75 803f d695 823f 6c60 803f a308 813f
000000c0: 8ba7 803f f55c 823f 786c 813f 6770 803f
000000d0: 8290 803f 8ce6 813f b23f 7f3f c896 803f
000000e0: 2800 813f 88f9 7f3f 42e3 813f 386d 7e3f
000000f0: 89dd 7f3f 7a90 813f 1aeb 7f3f 4456 803f
1.0132667 1.0173115 1.0154655 1.0074577 1.0122718 1.0119443 1.0082372 1.0151333
1.0073607 1.0115815 1.0141064 1.0052866 1.0091414 1.0055907 1.011551 1.0167319
1.0163034 1.0181031 1.0118427 1.0037082 1.0023164 1.0256305 1.0127 1.0058733
1.0074766 0.99693805 1.0228566 1.0154703 1.0200906 1.0133233 1.0104564 1.0068607
1.0060937 1.0000088 1.0030266 1.002918 1.0161695 1.0006495 1.0272163 1.0052203
1.0091933 0.9939353 1.0025673 1.003639 1.0035723 1.0201976 1.0029426 1.0080761
1.005113 1.0184618 1.0111227 1.0034302 1.00441 1.0148482 0.99706566 1.0046015
1.0078173 0.9999013 1.0147479 0.99385405 0.9994741 1.0122216 0.9996811 1.0026326

layers.2.1.bias f4 [64]
00000000: 2eb5 9c3c c73a ef3c ff23 b03c a467 283c
00000010: 90b2 4c3c 1c34 b03c 4bfd aa3b c1d2 8e3c
00000020: 92f2 5a3c b23e 993c 6ef5 ac3c bf2b 973b
00000030: add8 313c b798 0d3c db39 5f3c 787a af3c
00000040: 72ae 833c ebba 053d 2654 8d3c ae96 af3b
00000050: 16dd 8d3b 6484 133d 503e 8d3c d9e7 f63b
00000060: f147 113c 405e 86bb b8b5 003d ab58 b63c
00000070: 5764 e63c 0b74 b53c d7ee 333c 8794 643b
00000080: fd12 103c e9f4 7cba f3bc 6d3b dd77 36bb
00000090: f01a d53c 076f 833a 26b6 ec3c cb5e 863b
000000a0: 68bf fc3b 7292 a1bb c979 8c3a cf85 ae3b
000000b0: 58f2 323c 6f67 a13c 7d1c b83a 74b5 173c
000000c0: bc6c a23b c0c6 d33c 018f 023c 11de a33b
000000d0: 16cd 3c3b f5a3 9a3c 049e 37bb b8ae 5a3b
000000e0: e27b 1b3c 0d4e 92ba 5ec5 893c 1900 c5bb
000000f0: 3487 c4b9 8623 353c af3d 03ba 21f6 fd3a
0.019129362 0.029202832 0.02150154 0.010278616 0.0124937445 0.021509223 0.005218183 0.01743448
0.013363497 0.018706653 0.021113124 0.0046133692 0.010854882 0.008642367 0.013624634 0.021420702
0.016074393 0.032648962 0.01725204 0.0053585386 0.004329334 0.03601493 0.017241627 0.0075349626
0.00886725 -0.004100591 0.0314233 0.022259077 0.028124018 0.02215006 0.010982237 0.0034878568
0.00879359 -0.00096495316 0.0036275953 -0.002784244 0.026013821 0.0010027596 0.028895449 0.0041006557
0.007713247 -0.0049307877 0.0010717447 0.00532601 0.010922037 0.019702641 0.0014046576 0.00925957
0.00495681 0.025851607 0.007968665 0.0050008376 0.0028808764 0.018877009 -0.0028017769 0.00333683
0.009489985 -0.0011162177 0.016817745 -0.0060119745 -0.00037484767 0.011055833 -0.0005006445 0.001937572

layers.2.1.running_mean f4 [64]
00000000: 2a3f ffbd bbde 99be f8a1 e4be fc23 18be
00000010: ae8f 06be 2410 d0be bd2d c23e 934e ccbd
00000020: 2ca7 98be 3e2f 70be fa8a 98be 3a3d 5f3e
00000030: f124 43be 779d 033d ed07 a03e 9d74 93be
00000040: 274c 40bc 4450 efbe 1436 813d 0743 e03b
00000050: 9ef8 71be 148a cbbe f72c c3be 73d4 a4be
00000060: f107 cc3e 9818 abbe b92e ecbe 916b 95be
00000070: c9ee 8fbc 72e0 45be f98d ae3e e780 77bd
00000080: 5a6e 4dbe 715d d13e 26ee 2ebd 13de 0c3c
00000090: e5ea dabe 044c 4b3e 8afb cfbd 7ab9 433e
000000a0: c0fd 823e 4d87 443d 648f e23d 9112 04bc
000000b0: 12ab 0dbf 0562 e9bc 07f3 58be a8e1 e3bd
000000c0: 9c56 56be 266e cebe 174f 203e b8aa ebbe
000000d0: 044a dc3d ec51 79be ca25 8cbd 23c0 d93c
000000e0: 09f5 9abe 5ef0 563e f71c 99be 6bf7 72be
000000f0: ed4a efbd 7e4b 843e a759 11be 51b2 8a3d
-0.124632195 -0.30052742 -0.44654822 -0.14857477 -0.13140747 -0.40637314 0.3792552 -0.09975924
-0.29815042 -0.23455521 -0.2979353 0.218007 -0.19057061 0.032132592 0.31256047 -0.28799906
-0.011736906 -0.46740925 0.06309143 0.006843928 -0.23629996 -0.39753783 -0.38120243 -0.32193336
0.3984981 -0.334172 -0.46129397 -0.2918363 -0.017569916 -0.193239 0.34092692 -0.060425665
-0.20061627 0.40891603 -0.042707585 0.0085978685 -0.42757335 0.19853216 -0.10155399 0.19113722
0.2558422 0.047980595 0.11062506 -0.008061067 -0.5533916 -0.028489122 -0.21186458 -0.11127025
-0.20931476 -0.40318412 0.1565517 -0.46028686 0.10756305 -0.24347657 -0.06843145 0.026580876
-0.30265072 0.2099013 -0.2990491 -0.23727195 -0.11684213 0.25838846 -0.14194356 0.067722924

layers.2.1.running_var f4 [64]
00000000: 230b 8f3f f531 d23f 5668 2d3f 78e9 273f
00000010: 2b02 da3d 17cc 933f 18b3 213f d609 fe3e
00000020: 5323 9d3f 9071 c43f 9b3e e53e 72ad ad3e
00000030: 87be 663f 964c b83e 2706 3040 f9ab 2e3f
00000040: e459 9b3f b66d 3c3f ce55 b13e e6da 703f
00000050: ae40 f63e f38a 713f fca8 4e3f 21ed 7d3f
00000060: d328 073f 77e1 d13f 969e 073f c59b fa3e
00000070: 4d5f 0240 9723 c53e eaa7 9e3f d225 5d3e
00000080: b226 923f e3e4 973e 1248 9c3e 04b6 1d3f
00000090: 568a 953f 9696 863d 214c e43e b607 4e3e
000000a0: 6923 c33e 1c71 d73e 103d 153e b1ee 1c3e
000000b0: 5f52 b93f 7b59 383f c6ea da3c 8e67 5d3e
000000c0: c520 b43e 563e 8a3f dc4a a93f 5334 b43f
000000d0: 372f bb3e c2ae 9c3f 2e08 533e 95a5 5d3d
000000e0: 6099 823f 4365 af3e f05b 073f 98e3 853f
000000f0: 0ca6 953d 9c5a b33e e98d 5e3e 58c9 7a3f
1.1175274 1.6421496 0.6773733 0.6559062 0.10644945 1.1546658 0.631639 0.4961688
1.2276405 1.5347157 0.44774327 0.3392139 0.9013447 0.3599593 2.7503755 0.6823116
1.2136807 0.73604906 0.34635776 0.9408401 0.48096222 0.94352645 0.807266 0.99189955
0.5279667 1.6396931 0.5297636 0.48946968 2.0370667 0.38503715 1.2394993 0.21596459
1.1418059 0.29666814 0.30523735 0.6160586 1.1682842 0.06571691 0.44589332 0.20120129
0.38112953 0.42078483 0.14574075 0.15325429 1.4478263 0.72011536 0.026723277 0.21621534
0.3518125 1.0800273 1.322597 1.4078468 0.3655946 1.2240832 0.20608589 0.05411299
1.0203056 0.34256944 0.5287466 1.0460081 0.073070616 0.35030067 0.21733822 0.97963476

layers.3.weight f4 [1, 64, 3, 3]
00000000: c3f8 aabd b27c 5dbd be16 3dbd 809d 96bd
00000010: 5e22 79bd 3c10 dabd 7b3f d2bd b050 b6bd
00000020: d434 cabd 041d a3bd 65a4 5fbd 8b8e aebd
00000030: c390 33bd 9507 90bd 4c35 babd 0b22 b9bd
00000040: ec76 c4bd 5153 afbd 4f9d 9abd c401 f4bd
00000050: a0f0 d1bd 3839 2cbd 283e d8bd b310 9ebd
00000060: 403c 36bd dd12 55bd c5ec bebd 08b5 16bd
00000070: 457c 36bd 1e9e 96bd 7446 33bd 788b 9cbd
00000080: 7956 96bd 4aaa 98bd a915 15bd fc95 c6bc
00000090: d520 943d fadf c03d 6093 993c 06a7 3c3d
000000a0: acf3 703d f389 5c3d 7cc1 ca3d 4f7e c73d
000000b0: 4303 443d 898d 38bd 7755 c5bd 96dd 38bd
000000c0: c10a 5cbd da2f c0bd 5522 d5bd 6b42 50bd
000000d0: 7fcf 92bd b2bc b4bd 4a6d 663d 662c 853d
000000e0: 8881 763d 167b 6d3c 9330 a83d 56a8 983d
000000f0: 323b a53c 87a5 903d 782e 823d cb46 b53d
00000100: afdf f23d 1ee7 d53d 741d 823d 12d3 943d
00000110: 5896 583d 63db be3d 8bda cf3d 0a09 b33d
00000120: ebf1 58bd 798f 9bbd 335b 40bd 15b2 90bd
00000130: c60e 71bd cba2 90bd 71d1 9abd f1c8 f5bc
00000140: f236 83bc 9b65 adbd 6c35 9ebd 0025 8abd
00000150: 6be3 80bd eb73 39bd c44c b8bd 1583 11bd
00000160: daeb 07bd 4cc9 b4bd f334 aabd 2715 b5bd
00000170: 472b 15bd 4aec 44bd 8c01 9fbd 1e23 83bd
00000180: 0b26 cabd fe94 ccbd 70af 84bd aadf 503d
00000190: 2939 dd3c dd9b 943d 39f4 573d 4807 223d
000001a0: f78a 963c 75d8 d03c 8bbc 903d 2b6e 493d
000001b0: 3a73 8abc 8366 bbbd 6c0f 54bd b6f4 5abd
000001c0: 5ea5 9cbd f9f7 a4bd b1b7 d0bc 0f56 4bbd
000001d0: 7aae 8cbd 3ecf 60bd d6f8 91bc ac6c a4bd
000001e0: 4125 97bd f15a 29bd 7e80 1fbc 7c5c 10bd
000001f0: d864 94bd 37df 04bc c118 b03d 3a9a a03d
00000200: 178a ab3d 8880 9d3d de7f 193d 1700 a93d
00000210: 50e2 2a3d 31fa 583d 09b7 7b3d 9396 94bd
00000220: 274f debd f6fd 6abd 0fbc b1bd 4fbf 84bd
00000230: 8511 9cbd 0d1d 65bd 54dd 96bd b7d6 a5bd
00000240: 8bef 1c3d e807 7b3d 7d66 c03d 3aa9 503d
00000250: ccd4 5a3d 3668 cb3d 26cf d23d 79c2 b33d
00000260: 20cd ca3d 8e07 dfbd bd1e cabd bf26 a8bd
00000270: 5249 51bd b775 99bd 6f9d ebbd f93c ecbd
00000280: ecf6 68bd 0e97 acbd 4f4e 5fbd 13ca bbbd
00000290: afc9 9abd a2da cabd 22d4 b6bd 1290 04bd
000002a0: 8642 1dbd 6145 12bd 53d3 ecbc 2488 863d
000002b0: adb1 24bc bb36 703d 302f 813d f2ad 2b3d
000002c0: 1016 943c 7960 3b3d 50ea f03c 3b8c 883d
000002d0: 67a5 44bd 27df 02bd 1186 0fbd 61da e8bb
000002e0: 5fc0 053a 1763 97bd 71be 55bd 5048 14bd
000002f0: b7be 3cbd bc85 f9bd e867 efbd 2ba8 dfbd
00000300: b372 46bd 7207 9fbd 8f50 bdbd d7b3 afbd
00000310: 2b7f b1bd 598f e0bd aa29 d6bd 66e4 cebd
00000320: 9fe8 0dbd 586d abbd df2f 19bd c752 21bd
00000330: 6411 c3bd 8c30 94bd b666 8cbd ade8 d7bc
00000340: be1d d2bc 8274 6ebd b387 57bd 1288 fbbc
00000350: 4c3b d1bd 8778 b4bd 16b3 a4bd 55fc 6cbd
00000360: 0df9 98bd 0755 83bd be05 aabd 77ab 9fbc
00000370: 1fa6 ddbc a223 4ebd 06a8 8cbd 4923 1cbc
00000380: 4f88 08bd f9d7 8fbd 62d1 82bd e600 93bd
00000390: 2b2c cabd 8ac2 31bd 7bca d8bd bbf7 8ebd
000003a0: f19a 19bd 7de7 65bd 2bf9 bfbd 53ba cebd
000003b0: acc2 a7bd 5eb2 a1bd 91a2 f3bd 16fb 79bd
000003c0: 279c eebd f8fc b7bd e089 7fbd 1702 f8bd
000003d0: 2be6 e2bd 2ab2 c4bd 6df9 a1bd f9a4 a9bd
000003e0: 0242 a0bd f123 57bd 9783 43bd 8009 58bd
000003f0: fd59 99bd 9b91 b2bd bb99 66bd d8e7 d0bd
-0.08348229 -0.054073997 -0.046164267 -0.073542595 -0.06082379 -0.10647628 -0.10266014 -0.08902109
-0.098733574 -0.07964519 -0.05460014 -0.08523282 -0.043839227 -0.07032696 -0.09092197 -0.09039696
-0.09592995 -0.08560813 -0.075495355 -0.11914399 -0.10250974 -0.042046756 -0.1055873 -0.07718029
-0.044491053 -0.052019943 -0.09322504 -0.03679374 -0.044552106 -0.07354377 -0.04376836 -0.07643789
-0.07340712 -0.07454355 -0.03639761 -0.02424144 0.07232825 0.0941772 0.018747032 0.046057723
0.058826134 0.053842496 0.099001855 0.09740888 0.047854673 -0.045056853 -0.09635442 -0.045133196
-0.053721193 -0.09384127 -0.10406939 -0.05084459 -0.07168483 -0.08825053 0.05625657 0.06502609
0.060182124 0.014494678 0.0821239 0.074539825 0.020169828 0.07062822 0.063565195 0.08851393
0.118590705 0.10444473 0.06353274 0.07266821 0.052877754 0.093191884 0.10149106 0.087419584
-0.052965086 -0.075957246 -0.046961974 -0.070652165 -0.05885198 -0.070623 -0.07559479 -0.030003043
-0.01601741 -0.08466645 -0.07725033 -0.067453384 -0.062933765 -0.045276564 -0.08999017 -0.0355254
-0.03318391 -0.08827457 -0.083108805 -0.08841925 -0.036418226 -0.048076905 -0.07763967 -0.064031824
-0.09870537 -0.099893555 -0.064787745 0.050994553 0.027004795 0.07256291 0.052723143 0.039557725
0.01837681 0.02549384 0.07067212 0.04917733 -0.016900647 -0.09150412 -0.05177252 -0.05345603
-0.07648729 -0.080551095 -0.025478216 -0.04964262 -0.06869216 -0.05488514 -0.01781885 -0.0802854
-0.073801525 -0.041346494 -0.009735225 -0.03524445 -0.07245797 -0.008109859 0.085984714 0.078419164
0.08375948 0.07690531 0.03747546 0.0825197 0.041719735 0.052972976 0.061453853 -0.07255282
-0.10854941 -0.057371102 -0.086784475 -0.06481802 -0.07620529 -0.055935908 -0.07366434 -0.08097594
0.038314383 0.061286837 0.09394548 0.050942637 0.053425595 0.09931986 0.10293417 0.08777327
0.09902406 -0.10890113 -0.09869144 -0.08210515 -0.051095314 -0.074931554 -0.115046374 -0.11535067
-0.056876108 -0.08427249 -0.05451804 -0.09169402 -0.07557999 -0.09904982 -0.0892718 -0.03236396
-0.03839352 -0.035710696 -0.028909361 0.065689355 -0.010052127 0.058645945 0.063078284 0.041913934
0.018076926 0.0457463 0.029408604 0.06667372 -0.048009302 -0.031951096 -0.035039965 -0.007106111
0.0005102213 -0.07391947 -0.052183572 -0.036201775 -0.046080317 -0.12183711 -0.116897404 -0.10920747
-0.04844923 -0.07765092 -0.09243881 -0.085792236 -0.086668335 -0.109648414 -0.104571655 -0.10102157
-0.034645673 -0.08370465 -0.03739917 -0.039385583 -0.095248014 -0.07235822 -0.06855528 -0.026356066
-0.025648948 -0.05821658 -0.052619647 -0.030704532 -0.10216388 -0.08812051 -0.080419704 -0.05785783
-0.07469378 -0.06412702 -0.083018765 -0.01949094 -0.027056752 -0.05032695 -0.068679854 -0.009529897
-0.03333312 -0.070236154 -0.06387593 -0.07177906 -0.098717056 -0.043398418 -0.10585495 -0.069808446
-0.03750128 -0.056128968 -0.09373697 -0.10094132 -0.081914276 -0.07895349 -0.118962415 -0.06103047
-0.116508774 -0.08983797 -0.062387347 -0.121097736 -0.11079057 -0.096042946 -0.07908902 -0.08283419
-0.0782509 -0.05252451 -0.047732916 -0.052743435 -0.07487867 -0.08719178 -0.056298953 -0.10200471
