refinement_model.pth (torch_old, 314984 bytes, 16 tensors)

layers.0.0.weight f4 [64, 5, 3, 3]
0.14419873 0.047651917 -0.084596835 -0.037785817 -0.14693983 0.029810658 0.091539234 -0.028751763
-0.11245823 0.03760442 0.12205414 0.059366938 -0.13672748 0.021462819 0.06828517 0.06564065
-0.07603034 -0.013422506 -0.10976338 -0.065618195 0.10017982 -0.07772358 -0.1259497 0.022609469
0.12970066 0.075654484 0.088776685 0.1357902 0.03226059 0.10836917 -0.11138064 0.029542908
0.14304753 -0.14886954 0.13590527 -0.13500322 -0.023984771 -0.058774207 -0.07554034 -0.13760945
0.09623377 -0.035859138 -0.10155261 0.040221706 -0.0976501 -0.009320284 0.062921785 -0.064781815
0.11796932 -0.08044479 0.099562444 0.14750716 0.02306442 -0.05265823 0.095855266 -0.1104282
-0.07920043 -0.026758006 -0.007815485 -0.10745991 -0.048091978 0.028209416 0.019727906 -0.00062077516
0.038094476 0.1396498 -0.040933 0.1068919 -0.054196823 0.0010876344 0.023800505 -0.0185116
0.056384068 0.017534567 0.032881606 -0.07078985 0.12693083 0.14663231 0.14053303 -0.009084862
-0.015651466 0.007903827 0.07113555 -0.13149722 0.10767336 0.12070085 0.03497753 0.034940384
0.024694588 0.03287253 0.10191841 -0.141534 0.10975601 -0.1489193 0.14736469 0.13233729
0.1056773 -0.034667287 -0.03488944 0.014069107 0.07849904 -0.062971406 -0.10652813 0.07354409
-0.10505772 0.005414591 -0.06588159 0.05819875 0.1436504 -0.01472474 0.0018354804 -0.09081171
-0.011079819 -0.12145404 -0.072188295 -0.042418104 0.047062133 0.112827756 -0.052985035 -0.001563008
-0.056308534 -0.07152204 0.057930615 0.030416517 -0.0501495 0.10748232 0.03179007 0.12100434
0.10306521 0.06922462 0.093868054 -0.052137714 0.08376553 0.09384474 0.123095706 -0.030891359
0.07397244 0.091866225 -0.12966311 0.09505029 -0.016035268 0.08199244 -0.09711463 0.006076842
0.058027007 0.100321956 0.05597353 -0.040443953 -0.11267863 0.0891701 0.10036317 0.00021738702
-0.095459305 -0.02344163 -0.021435099 -0.009808385 -0.10452649 -0.0805669 0.06841144 0.090023026
0.054567736 0.094499044 -0.056236822 -0.13220575 -0.08093714 0.11429334 0.028787222 -0.09922779
-0.06598205 0.0010301372 0.113485314 0.019011537 -0.12893943 -0.027858557 0.021824751 0.062823996
0.105222456 0.0454131 0.019177893 0.12765199 0.06866903 -0.13936733 0.016184967 -0.001522849
0.14598648 -0.12534544 0.10587101 0.14497077 -0.07131956 -0.123019904 -0.108010426 -0.14501782
0.06419562 0.11744324 0.11951209 -0.040156122 0.12366642 -0.041313395 -0.0021768145 -0.09771677
-0.13513653 0.04271427 0.040021475 0.012890434 0.078511104 0.14646459 -0.096808344 -0.07018348
0.055240553 -0.124466546 0.09101193 -0.052990653 -0.0116474405 0.126306 -0.05556712 -0.13300703
-0.056198746 0.0818673 -0.1173287 0.007794341 0.025353836 0.114745356 -0.10437708 -0.09138059
-0.11674677 -0.09956365 0.11680273 0.08414953 -0.03862245 0.020771785 0.053163633 0.09951094
0.08450583 -0.10700157 -0.12235255 -0.11919231 -0.037398823 0.046359573 0.050091874 0.068115376
0.12440067 0.0026012182 -0.07635464 -0.14256336 -0.10453246 -0.09279465 -0.13453753 0.02905467
0.10404235 -0.011876125 0.03494618 0.08001106 0.06924116 -0.052058242 0.027970782 -0.05111399
00000000: d5a8 133e a82e 433d 1b41 adbd 4dc5 1abd
00000010: 6577 16be 7b35 f43c ec78 bb3d d188 ebbc
00000020: 8050 e6bd 1807 1a3d 85f7 f93d bf2a 733d
00000030: 4a02 0cbe cbd2 af3c 18d9 8b3d 9b6e 863d
00000040: cbb5 9bbd 12ea 5bbc 9fcb e0bd d562 86bd
00000050: 142b cd3d 8a2d 9fbd f5f8 00be 7e37 b93c
00000060: 40d0 043e bdf0 9a3d 8dd0 b53d 960c 0b3e
00000070: ae23 043d a8f0 dd3d 881b e4bd f803 f23c
00000080: 0d7b 123e 4271 18be c02a 0b3e 493e 0abe
00000090: b67b c4bc 39bd 70bd e5b4 9abd 7ee9 0cbe
000000a0: 3616 c53d 08e1 12bd d1fa cfbd 84bf 243d
000000b0: c7fc c7bd 1bb4 18bc 23dd 803d 54ac 84bd
000000c0: e699 f13d 3dc0 a4bd 65e7 cb3d 1e0c 173e
000000d0: 98f1 bc3c 28b0 57bd c44f c43d 2e28 e2bd
000000e0: d633 a2bd 9b33 dbbc 850c 00bc f113 dcbd
000000f0: 18fc 44bd 6f17 e73c 6b9c a13c 84bb 22ba
00000100: f408 1c3d 5b00 0f3e 5da9 27bd 24ea da3d
00000110: 7dfd 5dbd f48e 8e3a 47f9 c23c a4a5 97bc
00000120: fbf2 663d a7a4 8f3c ddae 063d 45fa 90bd
00000130: 28fa 013e c826 163e e4e7 0f3e acd8 14bc
00000140: 8137 80bc 0e7f 013c 84af 913d 35a7 06be
00000150: da83 dc3d 0232 f73d 9944 0f3d a61d 0f3d
00000160: 4e4c ca3c 59a5 063d 99ba d03d 4aee 10be
00000170: c2c7 e03d 4d7e 18be c5e6 163e 6d83 073e
00000180: 576d d83d 49ff 0dbd 3be8 0ebd 1d82 663c
00000190: 1bc4 a03d 27f7 80bd 6c2b dabd 499e 963d
000001a0: 8028 d7bd e26c b13b edec 86bd d061 6e3d
000001b0: 1719 133e 0940 71bc 8194 f03a 7dfb b9bd
000001c0: 2188 35bc e5bc f8bd 75d7 93bd 9bbe 2dbd
000001d0: 39c4 403d 3d12 e73d d606 59bd d8dd ccba
000001e0: c7a3 66bd 267a 92bd a748 6d3d 0f2c f93c
000001f0: 9069 4dbd b11f dc3d 4e36 023d 20d1 f73d
00000200: da13 d33d a3c5 8d3d e53d c03d 5b8e 55bd
00000210: 438d ab3d ac31 c03d 9a19 fc3d e00f fdbc
00000220: dd7e 973d 5c24 bc3d 68c6 04be baa9 c23d
00000230: 655c 83bc a7eb a73d 09e4 c6bd 3f20 c73b
00000240: baad 6d3d 9975 cd3d 8044 653d 8fa8 25bd
00000250: 0ec4 e6bd d09e b63d 358b cd3d 62f2 6339
00000260: 2b80 c3bd a908 c0bc a998 afbc 59b3 20bc
00000270: fc11 d6bd 4200 a5bd 4c1b 8c3d fe5d b83d
00000280: 6b82 5f3d b788 c13d 9558 66bd f260 07be
00000290: 5fc2 a5bd a012 ea3d 2ed3 eb3c f137 cbbd
000002a0: 9921 87bd ab05 873a fd6a e83d 15be 9b3c
000002b0: b308 04be a137 e4bc d2c9 b23c dea9 803d
000002c0: df7e d73d 1603 3a3d f51a 9d3c 34b7 023e
000002d0: 59a2 8c3d 4fb6 0ebe 5696 843c 559a c7ba
000002e0: 7b7d 153e 8e5a 00be e6d2 d83d 3873 143e
000002f0: fd0f 92bd dcf1 fbbd 9234 ddbd 8d7f 14be
00000300: fe78 833d 1586 f03d c1c2 f43d bf7a 24bd
00000310: d244 fd3d 3c38 29bd e3a8 0ebb bb1f c8bd
00000320: 3b61 0abe 29f5 2e3d 8fed 233d 6632 533c
00000330: 6eca a03d d0fa 153e 7443 c6bd 5bbc 8fbd
00000340: eb43 623d 51e8 febd 7664 ba3d ba0c 59bd
00000350: e8d4 3ebc 5c56 013e 599a 63bd ff32 08be
00000360: a830 66bd 0baa a73d 084a f0bd ac67 ff3b
00000370: d9b2 cf3c 9dff ea3d a7c3 d5bd bf25 bbbd
00000380: ee18 efbd 07e8 cbbd 4536 ef3d 9756 ac3d
00000390: 9332 1ebd 9729 aa3c 1cc2 593d 64cc cb3d
000003a0: 6511 ad3d a423 dbbd f993 fabd 191b f4bd
000003b0: 822f 19bd 89e3 3d3d 232d 4d3d 1380 8b3d
000003c0: c7c5 fe3d 3379 2a3b d25f 9cbd 21fc 11be
000003d0: 1d15 d6bd 1f0b bebd 35c4 09be 0f04 ee3c
000003e0: 2814 d53d 1494 42bc ba23 0f3d d7dc a33d
000003f0: 4fce 8d3d 063b 55bd fb22 e53c e75c 51bd

layers.0.1.weight f4 [64]
0.9999805 1.0000305 1.0000039 1.0000188 1.0000061 1.0000021 1.0000082 1.000031
1.0000129 0.9999947 1.0000265 1.0000571 0.9999976 1.0000207 1.0000025 1.0000067
0.9999728 0.99999636 0.9999759 0.99997306 1.0000877 0.9999945 0.9999856 1.000009
0.9999408 1.000009 1.0000249 0.9999767 1.0000166 1.0000378 0.99999374 0.99999374
0.9999907 1.0000188 0.9999959 1.000016 0.99999267 0.9999419 1.0000255 0.99999833
0.99997306 1.000011 0.9999949 1.0000046 0.9999434 1.0000181 1.0000132 0.9999966
1.0000037 0.9999834 0.9999912 0.99999326 1.0000006 0.9999928 1.0000057 0.9999925
1.0000201 0.9999929 0.99998385 0.9999572 0.9999673 0.99999875 1.0000038 0.9999904
00000000: b9fe 7f3f 0001 803f 2100 803f 9e00 803f
00000010: 3300 803f 1200 803f 4500 803f 0401 803f
00000020: 6c00 803f a7ff 7f3f de00 803f df01 803f
00000030: d8ff 7f3f ae00 803f 1500 803f 3800 803f
00000040: 38fe 7f3f c3ff 7f3f 6cfe 7f3f 3cfe 7f3f
00000050: e002 803f a4ff 7f3f 0eff 7f3f 4b00 803f
00000060: 1ffc 7f3f 4b00 803f d100 803f 79fe 7f3f
00000070: 8b00 803f 3d01 803f 97ff 7f3f 97ff 7f3f
00000080: 64ff 7f3f 9e00 803f bbff 7f3f 8600 803f
00000090: 85ff 7f3f 31fc 7f3f d600 803f e4ff 7f3f
000000a0: 3cfe 7f3f 5c00 803f aaff 7f3f 2700 803f
000000b0: 4afc 7f3f 9800 803f 6f00 803f c7ff 7f3f
000000c0: 1f00 803f e9fe 7f3f 6cff 7f3f 8fff 7f3f
000000d0: 0500 803f 87ff 7f3f 3000 803f 82ff 7f3f
000000e0: a900 803f 89ff 7f3f f1fe 7f3f 32fd 7f3f
000000f0: dbfd 7f3f ebff 7f3f 2000 803f 5fff 7f3f

layers.0.1.bias f4 [64]
-2.808654e-05 5.242341e-05 5.1578513e-06 1.8654395e-05 7.681996e-06 1.1168689e-06 4.2158904e-06 3.3795193e-05
1.4998711e-05 -5.0986984e-07 2.8635272e-05 4.732145e-05 5.208024e-06 2.6191983e-05 4.4730286e-06 6.299693e-06
-3.4501267e-05 -7.931769e-06 -2.2538597e-05 -2.0764272e-05 8.223336e-05 -1.3050608e-05 -2.0355197e-05 2.405903e-06
-3.8229824e-05 1.4701317e-06 2.7817508e-05 -4.0981235e-05 -1.1284286e-06 4.108673e-05 -1.3609804e-05 -4.988986e-06
-2.0726835e-05 1.9361154e-05 -7.583974e-06 -6.450978e-07 -1.1173293e-05 -5.931299e-05 2.1729846e-05 -9.990468e-06
-2.2735456e-05 9.189897e-06 -1.1581145e-05 5.5853525e-06 -8.143828e-05 1.8625124e-05 5.276816e-06 4.029586e-06
1.03317525e-05 -9.033935e-06 -1.1083882e-06 -6.5064637e-06 -2.631052e-06 -1.5920168e-05 1.2046933e-06 -1.5665206e-05
1.5322714e-05 -7.311324e-06 -1.331179e-05 -3.051457e-05 -3.0123561e-05 7.860066e-06 1.8134228e-06 -3.1488626e-06
00000000: 639b ebb7 35e1 5b38 9b11 ad36 027c 9c37
00000010: ece1 0037 53e7 9535 3976 8d36 50bf 0d38
00000020: f9a2 7b37 fddd 08b5 c735 f037 057b 4638
00000030: 96c0 ae36 dbb6 db37 0617 9636 f361 d336
00000040: 74b5 10b8 b012 05b7 4511 bdb7 ef2e aeb7
00000050: b374 ac38 eff3 5ab7 74c0 aab7 1975 2136
00000060: f658 20b8 5751 c535 a559 e937 44e3 2bb8
00000070: 8374 97b5 8a54 2c38 aa55 64b7 1067 a7b6
00000080: 8ade adb7 c369 a237 d779 feb6 c92a 2db5
00000090: ee74 3bb7 d7c6 78b8 7d48 b637 bc9c 27b7
000000a0: 05b8 beb7 4f2e 1a37 a44c 42b7 d069 bb36
000000b0: d8c9 aab8 263d 9c37 810f b136 e135 8736
000000c0: 8a56 2d37 7590 17b7 eec3 94b5 1952 dab6
000000d0: 2191 30b6 4d8c 85b7 f2b0 a135 c668 83b7
000000e0: 4789 8037 cc53 f5b6 b455 5fb7 8af9 ffb7
000000f0: dbb1 fcb7 bade 0337 bc64 f335 0c51 53b6

layers.0.1.running_mean f4 [64]
0.0011332466 0.048642587 0.02911387 0.011274696 -0.015872233 -0.006294422 0.010685557 0.04026784
-0.025177073 0.035788484 0.033053838 -0.02043361 0.021349099 -0.011133779 0.013975744 0.017107
2.7998578e-05 0.009701018 0.058185518 0.027993774 -0.022274151 0.02300007 0.03065379 0.0302739
0.02461176 0.011896467 -0.030026276 0.031195566 -0.014748645 0.03555473 0.005756834 -0.024493184
0.026021253 -0.010061344 -0.049231805 0.029908776 0.033524454 -0.033002067 -0.019112784 -0.0020221728
0.07157195 -0.011321941 0.050245482 0.03314799 0.032829512 -0.006920269 -0.016815659 0.0061646556
-0.040075094 -0.070408 0.016497407 0.003829052 0.008379936 0.0012954983 -0.030026535 -0.048891462
0.006148466 -0.01004743 -0.044385355 0.008237001 0.018072497 0.0001446474 0.03246075 0.0145416055
00000000: 7289 943a 733d 473d 3680 ee3c 81b9 383c
00000010: 7c06 82bc 7041 cebb 7912 2f3c e4ef 243d
00000020: 2640 cebc f296 123d 7663 073d 6364 a7bc
00000030: 4ee4 ae3c 746a 36bc 85fa 643c fb23 8c3c
00000040: 7dde ea37 05f1 1e3c f053 6e3d 3353 e53c
00000050: 4878 b6bc a56a bc3c a81d fb3c f800 f83c
00000060: 9a9e c93c 66e9 423c aaf9 f5bc d88d ff3c
00000070: 4da4 71bc d6a1 113d d3a3 bc3b eea5 c8bc
00000080: 862a d53c 56d8 24bc 4aa7 49bd 4003 f53c
00000090: f050 093d 2d2d 07bd 6a92 9cbc 6e86 04bb
000000a0: 5194 923d aa7f 39bc 35ce 4d3d 30c6 073d
000000b0: 3d78 063d 6dc3 e2bb fec0 89bc e100 ca3b
000000c0: c825 24bd 1232 90bd 9225 873c d5f0 7a3b
000000d0: 004c 093c b6cd a93a 35fa f5bc 6a42 48bd
000000e0: 1279 c93b fa9d 24bc 6bcd 35bd 7cf4 063c
000000f0: c60c 943c 7eac 1739 90f5 043d ea3f 6e3c

layers.0.1.running_var f4 [64]
0.90421325 0.90648234 0.90553576 0.9045783 0.9057755 0.9049375 0.90478444 0.9057314
0.9089509 0.9056885 0.90447575 0.90637267 0.9067099 0.9025689 0.9028743 0.90416163
0.9037091 0.91039765 0.9057486 0.90886474 0.9104876 0.90315026 0.9060123 0.90462166
0.9093156 0.90345436 0.9025697 0.90694594 0.90465474 0.90660614 0.90512943 0.90521383
0.9078744 0.90685964 0.9057724 0.9076341 0.9044057 0.9134874 0.9026246 0.912352
0.9068288 0.90675807 0.90675044 0.9037252 0.90397906 0.90621006 0.90226316 0.90283775
0.9043603 0.9115412 0.9039283 0.903359 0.90361637 0.9051552 0.903044 0.9069643
0.90437955 0.91169727 0.90555096 0.90607697 0.91268426 0.9048277 0.90414673 0.9054686
00000000: 857a 673f 3a0f 683f 31d1 673f 7292 673f
00000010: e7e0 673f fca9 673f f49f 673f 03de 673f
00000020: 02b1 683f 34db 673f b98b 673f 0a08 683f
00000030: 241e 683f c10e 673f c522 673f 2377 673f
00000040: 7b59 673f d20f 693f 24df 673f 5cab 683f
00000050: b715 693f db34 673f 6cf0 673f 4995 673f
00000060: e8c8 683f c948 673f cf0e 673f 9c2d 683f
00000070: 7497 673f 5717 683f 90b6 673f 18bc 673f
00000080: 756a 683f f427 683f b3e0 673f b55a 683f
00000090: 2287 673f 4fda 693f 6812 673f e78f 693f
000000a0: ef25 683f 4c21 683f cc20 683f 895a 673f
000000b0: 2c6b 673f 62fd 673f b8fa 663f 6020 673f
000000c0: 2884 673f c45a 693f d867 673f 8942 673f
000000d0: 6753 673f 40b8 673f e42d 673f d02e 683f
000000e0: 6b85 673f fe64 693f 30d2 673f a9f4 673f
000000f0: ada5 693f caa2 673f 2976 673f cacc 673f

layers.1.0.weight f4 [64, 64, 3, 3]
0.04033826 -0.034021914 -0.017679613 -0.032810282 0.025081048 -0.016465006 -0.006046493 -0.029152011
0.01642691 -0.002428551 -0.03098275 -0.016329622 0.022693748 -0.020416807 0.025921473 0.019282011
0.024291776 0.04085517 0.005330577 -0.028382787 -0.026843129 0.01505207 -0.040615354 -0.0075734155
-0.015939714 -0.038537372 0.026551409 -0.006236314 -0.00356707 -0.03674681 0.005394218 0.01988163
-0.036690082 -0.0017906346 -0.019435246 0.030517904 0.0006867038 -0.001986703 -0.009018172 0.025989858
-0.020550195 -0.023771985 0.020524934 0.015423753 -0.041564845 -0.020497559 -0.03978471 0.0059753433
-0.030843752 0.0068805185 -0.037202746 -0.026749069 0.031591143 -0.040261537 -0.010797907 0.020530611
-0.012759136 0.022097914 -0.023989093 0.020798223 0.040876996 0.01607504 -0.01885413 0.0059404164
-0.022305528 0.03150532 -0.0066259764 -0.009219868 -0.019533811 0.014683986 -0.028727138 -0.01169349
-0.031076195 -0.0077761994 0.03794139 0.010175771 0.01748398 -0.011520057 0.007364454 -0.010464821
0.0110967085 -0.007445284 -0.013821709 0.013219586 0.032301422 0.040831417 -0.022120973 0.004351101
0.031430792 0.027480274 -0.027586447 0.005760354 0.029236976 -0.005560029 0.0080668265 0.0049470705
-0.024456555 -0.036333308 0.025252795 0.02661424 0.03567264 0.035993643 0.010835448 -0.022275127
0.0022865578 -0.02158956 -0.006902752 0.025592115 -0.041621737 0.02658003 0.0005244657 0.012234889
-0.020454386 -0.006297675 -0.028956516 0.005175206 -0.022857182 0.030272571 -0.017094627 -0.03412018
-0.016270986 0.015375567 -0.038470056 -0.015083727 0.00037293605 -0.020131094 -0.0002248147 0.029047607
0.013294059 0.005141532 0.01414493 0.031823352 -0.017755786 0.028906861 -0.010352303 -0.030029658
0.0024641366 0.0027596434 -0.013594212 0.010568808 -0.03507928 0.03977652 -0.036002066 -0.012959888
-0.018219287 -0.016102707 0.0048717186 -0.039560255 0.032808807 0.038456317 0.020066 0.027940838
-0.012453323 0.03766165 -0.031890914 -0.015870517 0.04077351 -0.026567345 -0.04150636 0.009494558
0.01377818 -0.02260149 0.028981486 -0.030850515 -0.0019876307 0.03466195 0.0020330437 -0.029025804
-0.0295698 -0.0039499206 0.029790454 0.038807333 -0.01267947 0.008717654 0.0060687554 0.0033690026
0.024401758 -0.03774507 -0.04096537 -0.0048050657 -0.009969035 -0.023963146 -0.040591273 0.001844148
-0.03502209 -0.019453771 0.0036217559 0.029920667 -0.013477132 -0.013953733 -0.01634237 -0.008096508
0.020233413 0.007885204 0.017173797 0.02612805 0.018746106 -0.006129421 -0.029972894 -0.018797873
-0.011042859 0.01496872 0.022201436 0.015837906 0.02828507 0.03287336 0.005501355 -0.030677576
0.028350899 -0.02652223 0.018819442 -0.02450987 0.029945038 0.035741165 -0.037478823 0.024902003
-0.033502176 -0.014055786 -0.009074536 -0.02789965 -0.022236774 0.035214268 -0.03129279 0.005087462
-0.030547986 -0.022950502 0.03640993 0.022862568 0.03306825 0.04047357 0.031333998 -0.020226894
-0.006009264 0.0007750922 -0.02358679 -0.01924281 0.014179392 0.016464485 -0.008471683 0.014031918
0.037843026 0.031977877 0.0289495 0.013509657 0.0017254773 -0.0054894243 -0.020925207 -0.0028434333
-0.028389003 -0.0029289855 -0.037160937 -0.022229057 -0.016843416 -0.01465606 -0.009897807 0.011502879
00000000: bb39 253d 905a 0bbd d6d4 90bc 1364 06bd
00000010: c576 cd3c 9fe1 86bc a921 c6bb 33d0 eebc
00000020: ba91 863c 5328 1fbb 89cf fdbc b3c5 85bc
00000030: 3de8 b93c 2641 a7bc 4559 d43c 4ff5 9d3c
00000040: 8cff c63c c057 273d 1fac ae3b 0583 e8bc
00000050: 1fe6 dbbc f59c 763c 495c 26bd 6a2a f8bb
00000060: 0194 82bc 5dd9 1dbd 5782 d93c fe59 ccbb
00000070: 81c5 69bb d383 16bd fbc1 b03b cdde a23c
00000080: 5748 16bd bab3 eaba aa36 9fbc af00 fa3c
00000090: e903 343a 5833 02bb f4c0 13bc afe8 d43c
000000a0: e258 a8bc 77bd c2bc e823 a83c e9b3 7c3c
000000b0: e63f 2abd 7fea a7bc 4bf5 22bd d0cc c33b
000000c0: 09ac fcbc f975 e13b e861 18bd dd20 dbbc
000000d0: b765 013d 48e9 24bd b4e9 30bc d02f a83c
000000e0: b20b 51bc af06 b53c c684 c4bc 0961 aa3c
000000f0: a36e 273d cdaf 833c fa73 9abc d3a7 c23b
00000100: 15ba b6bc b90b 013d b81e d9bb ee0e 17bc
00000110: 5f05 a0bc 1a95 703c 2d55 ebbc 0d96 3fbc
00000120: 8193 febc 7dcf febb 6e68 1b3d 47b8 263c
00000130: 903a 8f3c 9fbe 3cbc 8551 f13b a474 2bbc
00000140: f8ce 353c 92f7 f3bb 7374 62bc f696 583c
00000150: 7f4e 043d d83e 273d 0b37 b5bc ae93 8e3b
00000160: 93bd 003d 501e e13c f9fc e1bc 5ac1 bc3b
00000170: 6282 ef3c e730 b6bb b92a 043c 091b a23b
00000180: 1d59 c8bc 3cd2 14bd f3de ce3c 1b06 da3c
00000190: 791d 123d 126e 133d 2a87 313c 547a b6bc
000001a0: 13da 153b 97dc b0bc 7b30 e2bb 8ea6 d13c
000001b0: 8e7b 2abd 5dbe d93c 4c7c 093a d874 483c
000001c0: f58f a7bc ba5c cebb 3736 edbc c694 a93b
000001d0: fc3e bbbc 2ffe f73c 080a 8cbc 9ac1 0bbd
000001e0: bb4a 85bc cde9 7b3c c792 1dbd bd21 77bc
000001f0: a186 c339 f7e9 a4bc 3dbc 6bb9 3ff5 ed3c
00000200: 53cf 593c 4c7a a83b 23c0 673c 3459 023d
00000210: 9574 91bc 15ce ec3c b59c 29bc c200 f6bc
00000220: 5a7d 213b 22db 343b 42ba 5ebc cb28 2d3c
00000230: 4baf 0fbd b4ec 223d e776 13bd b655 54bc
00000240: 9d40 95bc d3e9 83bc f0a2 9f3b ef09 22bd
00000250: 8762 063d 5f84 1d3d 7461 a43c 2fe4 e43c
00000260: 0609 4cbc 1a43 1a3d 0ca0 02bd e302 82bc
00000270: 2002 273d c3a3 d9bc 9302 2abd 108f 1b3c
00000280: e0bd 613c c326 b9bc 956a ed3c 38ba fcbc
00000290: e942 02bb b0f9 0d3d d03c 053b 86c7 edbc
000002a0: 5d3c f2bc 566e 81bb 1c0b f43c 70f4 1e3d
000002b0: 8dbd 4fbc 7ed4 0e3c 69dc c63b 7cca 5c3b
000002c0: 32e6 c73c 939a 1abd 4ecb 27bd d073 9dbb
000002d0: 2a55 23bc 5c4e c4bc 0943 26bd 57b7 f13a
000002e0: 5373 0fbd 845d 9fbc fb5a 6d3b 301c f53c
000002f0: 30cf 5cbc 339e 64bc 6fe0 85bc 37a7 04bc
00000300: 8bc0 a53c f130 013c 10b0 8c3c 7e0a d63c
00000310: 6f91 993c 4fd9 c8bb b789 f5bc fffd 99bc
00000320: 1ced 34bc 5d3f 753c c9df b53c 7fbe 813c
00000330: 17b6 e73c 37a6 063d b644 b43b 8a4f fbbc
00000340: 2540 e83c 2645 d9bc 3b2b 9a3c ecc8 c8bc
00000350: 4c4f f53c 5465 123d 6583 19bd 49ff cb3c
00000360: 9439 09bd 3d4a 66bc 5dad 14bc cf8d e4bc
00000370: e529 b6bc d63c 103d de2c 00bd b9b4 a63b
00000380: c53f fabc b102 bcbc 9422 153d 484a bb3c
00000390: 9372 073d 9dc7 253d 1458 003d dfb2 a5bc
000003a0: 5ce9 c4bb 8f2f 4b3a 1539 c1bc 19a3 9dbc
000003b0: ae50 683c 87e0 863c d0cc 0abc 21e6 653c
000003c0: 4a01 1b3d 3cfb 023d 8027 ed3c 9c57 5d3c
000003d0: 6929 e23a a1e0 b3bb 576b abbc e558 3abb
000003e0: 0e90 e8bc 39f4 3fbb 1136 18bd b619 b6bc
000003f0: 34fb 89bc f91f 70bc 692a 22bc 9276 3c3c

layers.1.1.weight f4 [64]
1.000029 0.99994785 1.0000142 1.0000105 1.0000411 0.9999932 1.0000015 0.9999865
0.999996 0.99999535 0.99999696 0.99997306 0.9999938 1.0000321 1.0000205 1.000032
0.99999726 1.0000324 1.0000134 0.9999494 0.9999529 0.99999905 1.0000534 1.0000163
1.000002 1.0000035 1.0000039 0.99999404 1.0000021 0.9999985 0.9999887 1.0000094
0.99998 1.0000123 0.999994 0.9999764 1.0000112 0.99999946 0.99999464 1.0000036
1.0000014 0.99999523 1.0000144 0.9999986 1.0000228 1.0000252 1.0000225 0.99998885
0.99999577 0.99993724 1.0000067 1.0000051 0.9999982 0.9999973 1.0000045 0.99997807
1.0000094 0.99998134 1.0000015 1.0000261 0.9999705 0.99995935 1.0000222 0.99998593
00000000: f300 803f 95fc 7f3f 7700 803f 5800 803f
00000010: 5901 803f 8eff 7f3f 0d00 803f 1eff 7f3f
00000020: bdff 7f3f b2ff 7f3f cdff 7f3f 3cfe 7f3f
00000030: 98ff 7f3f 0d01 803f ac00 803f 0c01 803f
00000040: d2ff 7f3f 1001 803f 7000 803f affc 7f3f
00000050: eafc 7f3f f0ff 7f3f c001 803f 8900 803f
00000060: 1100 803f 1d00 803f 2100 803f 9cff 7f3f
00000070: 1200 803f e7ff 7f3f 42ff 7f3f 4f00 803f
00000080: b0fe 7f3f 6700 803f 9bff 7f3f 74fe 7f3f
00000090: 5e00 803f f7ff 7f3f a6ff 7f3f 1e00 803f
000000a0: 0c00 803f b0ff 7f3f 7900 803f e9ff 7f3f
000000b0: bf00 803f d300 803f bd00 803f 45ff 7f3f
000000c0: b9ff 7f3f e3fb 7f3f 3800 803f 2b00 803f
000000d0: e2ff 7f3f d3ff 7f3f 2600 803f 90fe 7f3f
000000e0: 4f00 803f c7fe 7f3f 0d00 803f db00 803f
000000f0: 11fe 7f3f 56fd 7f3f ba00 803f 14ff 7f3f

layers.1.1.bias f4 [64]
2.7381764e-05 -5.0742216e-05 6.08827e-06 1.0351337e-05 4.2361426e-05 -1.0097183e-05 1.2235643e-06 -1.5241386e-05
-2.2310953e-06 -2.4889464e-06 2.3194355e-06 -2.8347335e-05 -4.2384777e-06 5.0380004e-05 1.338925e-05 2.5030353e-05
-3.6615615e-06 2.1300271e-05 4.518404e-06 -5.6534813e-05 -4.073115e-05 -3.4003704e-06 2.9450752e-05 1.9702611e-05
-3.4186587e-06 -4.5621673e-06 1.496535e-06 -2.5938851e-07 3.279895e-06 -5.2853516e-06 -2.2653227e-05 5.3426347e-06
-2.0138628e-05 9.38717e-06 -1.2547195e-05 -3.1116182e-05 8.660741e-06 1.1976841e-06 -1.8289573e-05 3.3574086e-06
9.172018e-07 -1.1183546e-06 1.2083732e-05 -1.3170477e-06 1.456399e-05 1.1652278e-05 1.5103829e-05 -1.0460278e-05
-5.574106e-06 -5.3699114e-05 3.9746433e-06 -2.511349e-06 -4.7595354e-06 -5.9688323e-06 1.0645996e-06 -2.4511042e-05
9.474167e-06 -2.7147255e-05 7.497028e-07 2.1988313e-05 -3.5388155e-05 -3.558057e-05 1.6907921e-05 -1.0279594e-05
00000000: e4b1 e537 0ad4 54b8 d749 cc36 a7aa 2d37
00000010: 3cad 3138 1267 29b7 5939 a435 41b5 7fb7
00000020: edb9 15b6 c607 27b6 99a7 1b36 70cb edb7
00000030: 3f38 8eb6 1e4f 5338 64a2 6037 46f8 d137
00000040: 26b9 75b6 fcad b237 cb9c 9736 cb1f 6db8
00000050: bdd6 2ab8 eb31 64b6 020d f737 0947 a537
00000060: 1c6c 65b6 b814 99b6 8ddc c835 1642 8bb4
00000070: 2b1c 5c36 d358 b1b6 6f07 beb7 e244 b336
00000080: 60ef a8b7 977d 1d37 cb81 52b7 bf82 02b8
00000090: 994d 1137 1dc0 a035 8f6c 99b7 d74f 6136
000000a0: a135 7635 5f1a 96b5 3cbb 4a37 6ac5 b0b5
000000b0: dc57 7437 277e 4337 7466 7d37 8d7e 2fb7
000000c0: 3509 bbb6 fc3a 61b8 ed5d 8536 a688 28b6
000000d0: 19b4 9fb6 e147 c8b6 5de3 8e35 109d cdb7
000000e0: 3df3 1e37 49ba e3b7 2f3f 4935 8b73 b837
000000f0: be6d 14b8 593c 15b8 7cd5 8d37 8576 2cb7

layers.1.1.running_mean f4 [64]
-0.023757068 0.009227965 0.02543189 0.0046475446 -0.0033358163 0.007374088 0.007881784 0.062178142
-0.0031531763 0.027094077 -0.003371998 0.01680492 -0.02896913 0.0023874354 0.0023594128 0.031586174
0.029221345 0.009361845 -0.0017951025 0.019599726 -0.029247195 -0.04392962 0.0036180194 0.028515026
-0.010252794 -0.011190072 0.0066818246 0.005203941 0.004915353 0.06375043 0.020119827 -0.009430642
0.003622571 0.006494608 -0.029132789 -0.03279514 -0.01673318 0.021658884 -0.0007359338 -0.026016742
0.010098357 -0.0038695831 0.0085539725 0.0051345015 0.010150369 -0.0044524483 -0.0021999422 -0.007110387
0.011737991 -0.00062931294 0.024811707 0.053890567 0.026082292 0.030764937 -0.015235035 -0.0013308127
-0.015168278 -0.023725906 -0.030498367 -0.024164114 -0.020581622 -0.0058507295 0.0067847073 -0.007876077
00000000: 2f9e c2bc e430 173c 8a56 d03c 6e4a 983b
00000010: b69d 5abb 55a2 f13b 9922 013c 82ae 7e3d
00000020: 85a5 4ebb 66f4 dd3c bdfc 5cbb 79aa 893c
00000030: ab50 edbc 8576 1c3b 61a0 1a3b 8160 013d
00000040: 9a61 ef3c 6d62 193c a549 ebba 9b8f a03c
00000050: d097 efbc 8cef 33bd 4b1c 6d3b 5898 e93c
00000060: 56fb 27bc 9056 37bc 35f3 da3b d285 aa3b
00000070: f810 a13b 968f 823d 56d2 a43c fb82 1abc
00000080: a868 6d3b b8d0 d43b e3a7 eebc 3254 06bd
00000090: 0614 89bc f96d b13c aeeb 40ba 1021 d5bc
000000a0: 9473 253c d598 7dbb f625 0c3c 523f a83b
000000b0: bc4d 263c d8e5 91bb e82c 10bb 40fe e8bb
000000c0: b450 403c 7af8 24ba ec41 cb3c 5bbc 5c3d
000000d0: 88aa d53c c006 fc3c 5e9c 79bc aa6e aeba
000000e0: 5e84 78bc d55c c2bc b6d7 f9bc d2f3 c5bc
000000f0: ca9a a8bc 7ab7 bfbb 4052 de3b a90a 01bc

layers.1.1.running_var f4 [64]
0.90799975 0.91653305 0.9168236 0.91132796 0.91021657 0.90834504 0.91092485 0.91160685
0.9078802 0.90929705 0.9077471 0.91720164 0.91081786 0.9119068 0.9107769 0.91203076
0.9115041 0.9076934 0.9113243 0.9133596 0.9138559 0.90857655 0.9086138 0.91858214
0.9082388 0.9098474 0.9077291 0.9072104 0.9070862 0.9099382 0.91062874 0.9079591
0.90766084 0.9043361 0.90905255 0.90840274 0.9127066 0.92025596 0.9130135 0.9157439
0.908512 0.9080473 0.91024715 0.9139517 0.9155357 0.91307414 0.90797454 0.923975
0.9088152 0.91532135 0.9087625 0.91837376 0.9123253 0.9111868 0.90907675 0.9181569
0.912254 0.9087397 0.90829515 0.9229182 0.9069754 0.9105314 0.90660626 0.91182274
00000000: ac72 683f e9a1 6a3f f4b4 6a3f ca4c 693f
00000010: f403 693f 4d89 683f 5f32 693f 115f 693f
00000020: d66a 683f b1c7 683f 1d62 683f bacd 6a3f
00000030: 5c2b 693f b972 693f ad28 693f d97a 693f
00000040: 5558 693f 985e 683f 8d4c 693f efd1 693f
00000050: 76f2 693f 7998 683f ea9a 683f 3328 6b3f
00000060: 5782 683f c2eb 683f ef60 683f f13e 683f
00000070: cd36 683f b6f1 683f f71e 693f 0270 683f
00000080: 765c 683f 9282 673f abb7 683f 158d 683f
00000090: 24a7 693f e595 6b3f 41bb 693f 316e 6a3f
000000a0: 3e94 683f ca75 683f f505 693f bdf8 693f
000000b0: 8c60 6a3f 3abf 693f 0571 683f a089 6c3f
000000c0: 1da8 683f 8052 6a3f a9a4 683f 8b1a 6b3f
000000d0: 278e 693f 8a43 693f 41b9 683f 550c 6b3f
000000e0: 7a89 693f 2aa3 683f 0886 683f 5e44 6c3f
000000f0: 8a2f 683f 9618 693f 5917 683f 376d 693f

layers.2.0.weight f4 [64, 64, 3, 3]
-0.012769826 0.0048401407 0.022591664 0.0018174158 0.04142614 -0.025693152 -0.008724236 0.014684258
0.029100427 0.009620955 0.0013146057 0.0023021563 0.015833212 0.021730509 0.0030085293 -0.03702947
0.01007452 -0.019237092 -0.018372683 0.002947343 0.019985547 0.009283313 0.0246698 -0.012781995
0.026335176 0.039731827 0.011193337 -0.013246469 0.021582494 0.017659152 0.01775576 -0.026604293
0.034690503 0.005694324 -0.012072762 0.012451724 0.037805263 0.03413517 -0.032045368 0.015770927
-0.026675604 0.024103101 -0.006616362 -0.018305333 0.005235532 0.016445445 0.0231698 -0.03909945
-0.01867894 -0.021041473 -0.038422983 -0.0038377915 -0.031118503 0.022937467 -0.03709383 0.034705315
0.002594792 0.027410131 -0.029325059 0.025740594 0.023926517 -0.022187056 -0.028142223 0.016073624
-0.0026304752 0.0023103831 -0.015402851 0.03307268 0.0023744502 0.026019992 -0.02297132 -0.026843412
-0.0034325488 0.026844416 0.0061618937 -0.035920125 0.0353818 -0.03776519 0.0056990157 -0.004149779
0.00060586643 -0.029101029 -0.0072400435 -0.0094243605 -0.03675502 -0.0144640105 0.00667086 0.00015447456
-0.024412856 0.024443952 0.013375446 0.03640292 -0.009039335 -0.017297424 -0.030467454 -0.022298472
-0.027800743 -0.028597182 0.015100645 -0.027552137 0.0028587598 0.030758286 0.033424843 -0.013732802
-0.015349484 -0.011486039 -0.008586774 0.008702948 -0.031835593 -0.040351067 -0.021896198 0.03097491
-0.019284079 -0.03076705 0.009842812 0.010501087 0.011093114 -0.03457845 0.0046350863 0.0148422895
-0.034156486 -0.027601514 -0.022160007 0.007657884 -0.0019196534 0.014875929 0.01766416 -0.024602136
0.003964286 -0.0034669624 -0.020052446 -0.039305832 0.0025209251 -0.021213502 -0.01460137 0.025232878
0.025697818 0.0019610869 0.034778256 0.041591134 0.026911898 -0.020925468 -0.015943436 0.035444375
-0.03246891 -0.0398321 -0.012197754 0.027054941 -0.028906293 -0.01960043 -0.008151483 -0.023285922
0.0048056887 0.016127594 0.018961804 0.008586752 0.029301632 0.010451676 -0.013182947 0.012359257
-0.009292726 0.019524679 0.02765668 -0.040426496 -0.022597263 0.03231522 -0.017039886 -0.024033384
0.036379315 0.027891235 0.023725396 0.022228863 0.0039986293 0.022577764 -0.004056356 0.011554746
0.0072684833 0.038752057 -0.016525326 -0.012693508 -0.025529565 -0.033893462 -0.03653414 0.007533456
0.011725381 0.0034352324 -0.034868207 -0.0013066045 0.013931421 0.012330133 -0.024248596 -0.0010888958
-0.018355614 -0.032344107 0.02452946 -0.035844587 0.0371912 0.022067292 0.015139141 0.03788811
-0.011169579 -0.039925873 0.021605417 0.03000579 0.03113905 -0.018791948 -0.020718016 -0.016516069
0.027266493 0.030199088 -0.041128866 0.015008934 0.030513037 0.026652133 -0.014400056 -0.002772433
-0.008949198 0.03463984 -0.00054878887 0.0012365838 0.03302783 -0.0059755957 0.0007674357 0.025045484
0.030535009 0.005602755 -0.024368482 0.006725668 -0.010291333 0.02433623 0.022995293 -0.029348653
-0.018820852 -0.024512295 0.008549519 0.032489687 0.024923911 -0.01765484 -0.029688427 -0.014429435
0.011891518 0.023683805 -0.025003027 0.020570666 0.0017260504 0.02133036 -0.017214421 0.005492896
0.004694626 0.026872087 -0.0013291811 -0.009259491 -0.010812402 0.018279888 0.020348055 -0.0009639555
00000000: 8838 51bc 0b9a 9e3b 2712 b93c 5b36 ee3a
00000010: 75ae 293d 727a d2bc 19f0 0ebc 3e96 703c
00000020: 0564 ee3c 36a1 1d3c d94e ac3a c6df 163b
00000030: a7b4 813c 2e04 b23c bf2a 453b 37ac 17bd
00000040: 990f 253c 1b97 9dbc 4f82 96bc 3628 413b
00000050: bbb8 a33c 0919 183c 5218 ca3c 936b 51bc
00000060: debc d73c d7bd 223d 4264 373c b807 59bc
00000070: c5cd b03c eda9 903c 8774 913c 3ff1 d9bc
00000080: a117 0e3d 7497 ba3b d5cc 45bc 5102 4c3c
00000090: b1d9 1a3d 52d1 0b3d 0142 03bd 0832 813c
000000a0: cc86 dabc de73 c53c 11ce d8bb 11f5 95bc
000000b0: d38e ab3b 99b8 863c 98ce bd3c bf26 20bd
000000c0: 9404 99bc 2b5f acbc 6b61 1dbd 7583 7bbb
000000d0: 3bec febc 5be7 bb3c b3ef 17bd 2927 0e3d
000000e0: 630d 2a3b 368b e03c 1b3b f0bc f0dd d23c
000000f0: 8b01 c43c a1c1 b5bc 858a e6bc d5ac 833c
00000100: 0d64 2cbb cc69 173b 3d5c 7cbc 3877 073d
00000110: aa9c 1b3b e127 d53c 5a2e bcbc b7e6 dbbc
00000120: 9df4 60bb d2e8 db3c b6e9 c93b fb20 13bd
00000130: 82ec 103d acaf 1abd cfbe ba3b dffa 87bb
00000140: 02d3 1e3a 4865 eebc e33d edbb a268 1abc
00000150: 6f8c 16bd 75fa 6cbc 3b97 da3b 73fa 2139
00000160: 78fd c7bc af3e c83c b024 5b3c 3a1b 153d
00000170: b819 14bc 54b3 8dbc e296 f9bc 49ab b6bc
00000180: 62be e3bc a344 eabc b268 773c 05b5 e1bc
00000190: 085a 3b3b cdf8 fb3c 7de8 083d 8cff 60bc
000001a0: 677c 7bbc f02f 3cbc 8aaf 0cbc cf96 0e3c
000001b0: 0a66 02bd 2947 25bd a85f b3bc 18bf fd3c
000001c0: a5f9 9dbc 2e0b fcbc bf43 213c c00c 2c3c
000001d0: e4bf 353c 22a2 0dbd ece1 973b 132d 733c
000001e0: ace7 0bbd 921c e2bc e788 b5bc fdee fa3b
000001f0: e19c fbba 2bba 733c 6eb4 903c 6b8a c9bc
00000200: d7e6 813b fa35 63bb 0745 a4bc 27ff 20bd
00000210: 1b36 253b f0c7 adbc 963a 6fbc 2eb5 ce3c
00000220: 3b84 d23c 9485 003b a573 0e3d 775b 2a3d
00000230: 5776 dc3c e36b abbc cf9b 82bc 1f2e 113d
00000240: 1ffe 04bd fc26 23bd 17d9 47bc 53a2 dd3c
00000250: e4cc ecbc 1591 a0bc cc8d 05bc 1ec2 bebc
00000260: 0a79 9d3b 041e 843c c955 9b3c 73af 0c3c
00000270: fa09 f03c 823d 2b3c 4afd 57bc 7b7e 4a3c
00000280: 8540 18bc 38f2 9f3c 4390 e23c 4196 25bd
00000290: e51d b9bc f75c 043d 3b97 8bbc a9e1 c4bc
000002a0: 7a02 153d 297c e43c c35b c23c 4e19 b63c
000002b0: ef06 833b 01f5 b83c 2eeb 84bb 1e50 3d3c
000002c0: 752c ee3b 7aba 1e3d 1f60 87bc 6ef8 4fbc
000002d0: 6123 d1bc dfd3 0abd d3a4 15bd 36db f63b
000002e0: d01b 403c a321 613b f7d1 0ebd 5f42 abba
000002f0: 9d40 643c 5304 4a3c fea4 c6bc 48b9 8eba
00000300: 835e 96bc 417b 04bd 02f2 c83c c6d1 12bd
00000310: cd55 183d 77c6 b43c 290a 783c 9030 1b3d
00000320: 9c00 37bc 5089 23bd d8fd b03c b4ce f53c
00000330: 5217 ff3c 92f1 99bc d4b8 a9bc b54c 87bc
00000340: fb5d df3c 1464 f73c be76 28bd 08e8 753c
00000350: 7af6 f93c 9355 da3c 36ee 6bbc b5b1 35bb
00000360: a89f 12bc 81e2 0d3d 99dc 0fba de14 a23a
00000370: 3148 073d eece c3bb bd2d 493a 302c cd3c
00000380: 8e24 fa3c 5197 b73b 69a0 c7bc fe62 dc3b
00000390: fb9c 28bc c65c c73c a060 bc3c 966c f0bc
000003a0: 302e 9abc 02ce c8bc 4813 0c3c e813 053d
000003b0: 3b2d cc3c e2a0 90bc 2535 f3bc 7069 6cbc
000003c0: a4d4 423c 8a04 c23c 26d3 ccbc d083 a83c
000003d0: a43c e23a 02bd ae3c 4205 8dbc c0fd b33b
000003e0: 61d5 993b da22 dc3c eb37 aeba 1fb5 17bc
000003f0: 8026 31bc b4bf 953c f7b0 a63c f5b1 7cba

layers.2.1.weight f4 [64]
0.9999653 0.9999862 1.0000058 0.99999005 1.0000107 0.9999856 1.0001007 1.000013
0.99997646 1.0000348 1.000011 0.99995345 0.9999194 0.99998134 0.9999994 0.99999386
1.0000845 0.99999875 0.999997 0.9999995 1.000012 1.0000105 0.9999845 1.000002
0.9999963 0.9999382 1.0000014 1.0000149 0.99999106 1.0000068 1.0000198 1.000001
1.0000042 0.999972 0.99999475 0.99999565 1.000014 1.0000172 1.0000043 0.99999684
0.9999801 0.99999315 0.9999919 1.0000061 0.999998 0.9999848 1.0000002 0.9999353
0.9999685 1.0000027 0.9999708 0.9999903 1.0000329 0.99998593 0.99997544 0.99996483
0.9999653 0.9999543 1.000037 1.0000345 0.9999923 1.0000503 1.0000209 0.9999987
00000000: bafd 7f3f 18ff 7f3f 3100 803f 59ff 7f3f
00000010: 5a00 803f 0eff 7f3f 4d03 803f 6d00 803f
00000020: 75fe 7f3f 2401 803f 5c00 803f f3fc 7f3f
00000030: b8fa 7f3f c7fe 7f3f f6ff 7f3f 99ff 7f3f
00000040: c502 803f ebff 7f3f ceff 7f3f f8ff 7f3f
00000050: 6500 803f 5800 803f fcfe 7f3f 1100 803f
00000060: c2ff 7f3f f3fb 7f3f 0c00 803f 7d00 803f
00000070: 6aff 7f3f 3900 803f a600 803f 0800 803f
00000080: 2300 803f 2afe 7f3f a8ff 7f3f b7ff 7f3f
00000090: 7500 803f 9000 803f 2400 803f cbff 7f3f
000000a0: b2fe 7f3f 8dff 7f3f 78ff 7f3f 3300 803f
000000b0: deff 7f3f 01ff 7f3f 0200 803f c3fb 7f3f
000000c0: f0fd 7f3f 1700 803f 16fe 7f3f 5dff 7f3f
000000d0: 1401 803f 14ff 7f3f 64fe 7f3f b2fd 7f3f
000000e0: bafd 7f3f 01fd 7f3f 3601 803f 2101 803f
000000f0: 7fff 7f3f a601 803f af00 803f eaff 7f3f

layers.2.1.bias f4 [64]
-4.9069444e-05 -1.12730895e-05 7.784323e-06 -9.6683425e-06 1.3180383e-05 -2.864596e-05 0.00010708898 3.8127218e-06
-1.7573991e-05 4.165485e-05 1.3736897e-05 -4.2358963e-05 -8.8621746e-05 -2.0737876e-05 -2.0063464e-06 -7.6414935e-06
9.8587756e-05 -2.6371873e-07 -2.4542578e-06 9.070906e-06 4.812685e-06 1.4532949e-06 -2.1681064e-05 1.3531422e-06
-4.0165496e-06 -8.8502886e-05 1.0810226e-06 9.399464e-06 -1.0798234e-05 9.273083e-06 2.1827602e-05 -1.4162674e-05
2.326007e-06 -2.910299e-05 -4.5211295e-06 -1.1982e-06 1.7982607e-05 1.9400053e-05 1.5251373e-06 -6.0083034e-06
-1.3802815e-05 -1.2487396e-05 -6.5924314e-06 5.1050934e-06 -2.6102612e-06 -2.1617107e-05 9.677615e-08 -3.499804e-05
-1.8824372e-05 2.2915972e-06 -3.8181297e-05 -6.585043e-06 5.0233677e-05 -2.0111145e-05 -3.1976866e-05 -4.0133003e-05
-4.21523e-05 -5.3612413e-05 4.3697797e-05 4.4710072e-05 -1.2666168e-05 5.40062e-05 2.2423257e-05 -1.3829803e-06
00000000: eacf 4db8 8d21 3db7 6a99 0237 3735 22b7
00000010: 5021 5d37 bb4c f0b7 f594 e038 10de 7f36
00000020: dc6b 93b7 8eb6 2e38 8677 6637 97aa 31b8
00000030: 70da b9b8 40f6 adb7 c5a4 06b6 f733 00b7
00000040: e6c0 ce38 3a95 8db4 d4b3 24b6 3f2f 1837
00000050: a67c a136 d50e c335 bbdf b5b7 9d9d b535
00000060: e6c5 86b6 a09a b9b8 a717 9135 64b2 1d37
00000070: 102a 35b7 9793 1b37 6b1a b737 399c 6db7
00000080: 7f18 1c36 3222 f4b7 35b4 97b6 d7d1 a0b5
00000090: 5bd9 9637 4cbd a237 52b3 cc35 ef9a c9b6
000000a0: a492 67b7 f580 51b7 8e34 ddb6 6b4c ab36
000000b0: f22b 2fb6 6256 b5b7 40d3 cf33 dcca 12b8
000000c0: 08e9 9db7 57c9 1936 db24 20b8 17f5 dcb6
000000d0: 00b2 5238 5bb4 a8b7 e61e 06b8 7c54 28b8
000000e0: b0cc 30b8 e4dd 60b8 2748 3738 1387 3b38
000000f0: c780 54b7 b784 6238 9419 bc37 d79e b9b5

layers.2.1.running_mean f4 [64]
-0.011673627 0.04881417 6.309819e-05 -0.030165425 -0.02214947 0.023364175 -0.031406865 0.009336986
0.020613316 -0.0044525424 0.020641709 -0.010497852 0.0066142296 0.00051103684 0.0073897876 -0.011300256
-0.021186806 0.018323187 0.048303306 0.0064621037 -0.03883719 0.017628003 0.015110602 0.0331999
0.00021693006 -0.01278917 0.021856617 -0.017175743 0.0077427714 0.015718486 0.034155928 -0.0065580583
0.012164148 -0.038249187 -0.0092849545 -0.035601106 -0.012776236 -0.03951371 0.044270568 0.0045804675
0.029924985 -0.016660761 0.03401152 0.017621744 -0.024449073 -0.010737582 0.006370733 -0.01428335
0.031246778 0.02958661 -0.032072954 0.061262358 -0.008775162 -0.01528275 -0.023055641 0.030020813
-0.006469636 0.006257815 0.005047979 -0.0026559315 -0.0010230036 0.005918743 0.019343827 0.097417586
00000000: be42 3fbc 5ef1 473d 9553 8438 7b1d f7bc
00000010: ce72 b5bc 3a66 bf3c 7ca4 00bd 28fa 183c
00000020: 42dd a83c a2e6 91bb cd18 a93c 2fff 2bbc
00000030: 2ebc d83b 1af7 053a 0826 f23b b524 39bc
00000040: f48f adbc 821a 963c b0d9 453d 0ec0 d33b
00000050: bf13 1fbd 9a68 903c 7592 773c 9efc 073d
00000060: b877 6339 ab89 51bc a60c b33c 25b4 8cbc
00000070: 13b7 fd3b 0ec4 803c 16e7 0b3d fbe4 d6bb
00000080: 224c 473c 2eab 1cbd ec1f 18bc 77d2 11bd
00000090: 6b53 51bc 21d9 21bd 0e55 353d bf17 963b
000000a0: 3e25 f53c 267c 88bc aa4f 0b3d 7a5b 903c
000000b0: 6c49 c8bc afec 2fbc 95c1 d03b b604 6abc
000000c0: 3ef9 ff3c 9e5f f23c ee5e 03bd 3dee 7a3d
000000d0: b2c5 0fbc 8064 7abc 2fdf bcbc 35ee f53c
000000e0: 3eff d3bb 5b0e cd3b 8469 a53b 230f 2ebb
000000f0: 4e16 86ba 04f2 c13b f276 9e3c df82 c73d

layers.2.1.running_var f4 [64]
0.91019607 0.9157947 0.9091463 0.9119657 0.9098021 0.9115024 0.9219573 0.9095543
0.91115344 0.91074723 0.91123044 0.9163216 0.90977234 0.9099709 0.9120716 0.91014445
0.9182896 0.9115102 0.9111985 0.90739536 0.9166324 0.90854555 0.9188726 0.9115245
0.91549027 0.907644 0.91124856 0.91093546 0.91093594 0.9096318 0.91278684 0.914367
0.9082129 0.9106538 0.9121298 0.910867 0.9120676 0.9102084 0.90897566 0.91396224
0.91072124 0.9127618 0.91363174 0.91461766 0.90783906 0.90990096 0.90924996 0.913478
0.9125911 0.9130253 0.90957457 0.91546994 0.9062732 0.91495115 0.91700304 0.91174126
0.9106211 0.9109683 0.91194797 0.91093004 0.90863824 0.90994865 0.9092374 0.91420496
00000000: 9c02 693f 8571 6a3f d0bd 683f 9676 693f
00000010: cae8 683f 3958 693f 6505 6c3f 8dd8 683f
00000020: 5a41 693f bb26 693f 6646 693f 0d94 6a3f
00000030: d7e6 683f daf3 683f 867d 693f 3aff 683f
00000040: 0715 6b3f bc58 693f 4e44 693f 104b 683f
00000050: 6ca8 6a3f 7196 683f 3c3b 6b3f ab59 693f
00000060: 925d 6a3f 5b5b 683f 9647 693f 1133 693f
00000070: 1933 693f a1dd 683f 66ac 693f f513 6a3f
00000080: a480 683f 9c20 693f 5781 693f 942e 693f
00000090: 437d 693f 6b03 693f a1b2 683f 6ef9 693f
000000a0: 0725 693f c2aa 693f c5e3 693f 6224 6a3f
000000b0: 2468 683f 45ef 683f 9bc4 683f b2d9 693f
000000c0: 929f 693f 07bc 693f e1d9 683f 3d5c 6a3f
000000d0: 8501 683f 3d3a 6a3f b6c0 6a3f e067 693f
000000e0: 771e 693f 3835 693f 6c75 693f b632 693f
000000f0: 849c 683f 65f2 683f c8c3 683f 5609 6a3f

layers.3.weight f4 [1, 64, 3, 3]
-0.018668512 0.0014661931 0.027467722 -0.01000455 -0.018542431 -0.011936819 -0.01495185 -0.010751828
-0.013463797 0.0029303655 0.018873453 0.011545263 -0.034631632 0.0040458576 0.018836183 0.012160481
-0.0024856937 0.040382348 0.03227742 0.004756135 -0.029766934 0.018297594 -0.014894774 -0.0029675588
0.0121292975 0.016773805 -0.011913133 0.034575343 -0.008794731 -0.00012229545 -0.015601675 -0.03819205
0.039983876 -0.006285027 -0.015723981 -0.008989301 -0.04076764 0.026787682 0.022410166 0.029227858
-0.004603694 0.0023547022 0.0074239355 0.012010816 -0.028709624 0.017257903 -0.025655597 -0.024830895
-0.018910155 -0.036375754 -0.025824567 0.006406791 -0.018596899 -0.0173247 0.02415693 0.019452406
-0.02046629 0.0229992 0.039647173 0.019599631 0.0114734 -0.020801695 0.02935354 -0.008587038
-0.0060309623 -0.011372291 0.013968292 -0.00035775854 -0.039313484 0.015358787 -0.01583111 -0.035951402
0.016576787 0.030917987 -0.037394926 0.012540608 0.01884105 -0.00074017025 0.009586964 0.034426775
-0.032325488 0.010570506 0.02638842 0.033633463 -0.016722858 0.015487677 -0.01665513 0.03697232
0.04160094 -0.0149813 0.020040317 -0.024763385 0.026210006 0.00066146435 0.01850815 -0.0032907291
0.040461916 -0.017819226 0.036650077 0.033202708 -0.004160791 -0.005356039 -0.036470685 -0.01817336
-0.006296813 -0.03131706 -0.011247723 -0.02402323 0.02541849 -0.028459039 -0.031070944 0.007096245
-0.0076621226 -0.033510473 -0.027228147 -0.023200663 2.5856554e-05 0.008335118 0.03487414 0.00877908
-0.023459932 0.0038125578 -0.019351672 -0.039527413 -0.03844581 0.019542025 -0.018899383 -0.011360957
-0.012736952 0.038853854 -0.012208208 0.034733552 0.006020159 -0.036528908 0.004672025 0.018680263
-0.03295756 -0.004024336 0.031390883 -0.040574785 -0.012538678 0.017489567 0.007777592 -0.002399782
0.028522817 -0.0025002195 0.037405435 0.025122447 -0.036849074 -0.02042134 0.018619338 0.017971477
0.034733232 0.018129526 -0.038888294 0.03096217 0.022645464 -0.02421286 -0.03261556 -0.007643714
0.036755595 0.0021294262 -0.004236297 -0.021093605 -0.03842685 0.035115875 0.039385907 0.027337981
-0.039528508 0.017077366 -0.02824146 -0.036903873 -0.035741653 0.027794147 0.012421938 -0.011197246
0.03877765 0.035224747 -0.0008229894 0.026357481 -0.012652728 -0.020471502 0.03238782 -0.010486891
0.00043015453 0.009993307 -0.019340903 -0.036790986 0.027641797 -0.014398682 -0.004879973 -0.04023055
-0.008566551 0.029364532 0.008947709 -0.03429278 -0.040987246 0.039397195 0.011180348 -0.022596976
0.020532293 -0.016020449 -0.04086485 0.007940988 0.0016971434 -0.01708686 -0.039199196 0.0059672585
0.031451866 0.038118303 0.02386675 -0.016473932 -0.026045626 0.032824215 0.0005029241 0.026045462
-0.015212883 0.009660227 0.0340176 -0.040105734 0.040616836 -0.017461415 0.030088903 -0.007113383
-0.03175898 -0.019650701 -0.019415174 0.015766278 -0.03153353 -0.022936627 -0.003312005 -0.0407416
0.025325706 -0.040953327 -0.03679029 0.03450409 -0.037521686 0.008716772 -0.019343201 0.03349608
0.032573145 -0.00031420487 -0.024166372 -0.019348873 0.03192713 -0.017846545 -0.030999517 -0.02604911
-0.023026332 0.0036191505 0.036237933 0.013760871 -0.021220328 -0.024077764 0.036510363 0.011138508
00000000: b5ee 98bc 472d c03a fd03 e13c 20ea 23bc
00000010: 4ce6 97bc a692 43bc 9bf8 74bc 6f28 30bc
00000020: 4297 5cbc 600b 403b 809c 9a3c 5828 3d3c
00000030: e6d9 0dbd 1d93 843b 574e 9a3c c13c 473c
00000040: 05e7 22bb f667 253d 5435 043d 5ad9 9b3b
00000050: c9d9 f3bc d6e4 953c 3609 74bc 607b 42bb
00000060: f6b9 463c 3869 893c 4d2f 43bc e09e 0d3d
00000070: c717 10bc 6f3c 00b9 2b9e 7fbc 446f 1cbd
00000080: 22c6 233d a1f2 cdbb 94cf 80bc dc47 13bc
00000090: f8fb 26bd d771 db3c 8695 b73c 436f ef3c
000000a0: 96da 96bb 5951 1a3b 7c44 f33b 03c9 443c
000000b0: 7230 ebbc 7260 8d3c b02b d2bc 296a cbbc
000000c0: 78e9 9abc befe 14bd 0b8e d3bc 0ff0 d13b
000000d0: 8658 98bc 87ec 8dbc c1e4 c53c a75a 9f3c
000000e0: eca8 a7bc d168 bc3c 1365 223d 688f a03c
000000f0: edfa 3b3c 5168 aabc d676 f03c a6b0 0cbc
00000100: 619f c5bb d852 3abc 43db 643c 8a91 bbb9
00000110: 2d07 21bd 6ca3 7b3c 3eb0 81bc c741 13bd
00000120: 0bcc 873c b847 fd3c 6c2b 19bd 1f77 4d3c
00000130: 8c58 9a3c fc07 42ba a412 1d3c 1703 0d3d
00000140: bb67 04bd ea2f 2d3c 872c d83c 3ec3 093d
00000150: 60fe 88bc 07c0 7d3c 5770 88bc 4a70 173d
00000160: bf65 2a3d 2074 75bc 972b a43c 95dc cabc
00000170: 5eb6 d63c 1f66 2d3a 679e 973c 46a9 57bb
00000180: 65bb 253d a0f9 91bc 641e 163d 90ff 073d
00000190: 3f57 88bb b681 afbb 4962 15bd 4ce0 94bc
000001a0: 7f55 cebb 5146 00bd 5f48 38bc 5dcc c4bc
000001b0: 703a d03c ee22 e9bc 7e88 febc 9e87 e83b
000001c0: 8b12 fbbb 4742 09bd 900d dfbc 510f bebc
000001d0: 87e6 d837 0590 083c 30d8 0e3d 21d6 0f3c
000001e0: 0b2f c0bc 1bdc 793b 6687 9ebc 7fe7 21bd
000001f0: 5b79 1dbd 9916 a03c e1d2 9abc 4f23 3abc
00000200: a6ae 50bc 3825 1f3d f004 48bc c544 0e3d
00000210: c144 c53b 569f 15bd c917 993b 5a07 993c
00000220: 82fe 06bd 94de 83bb ba93 003d bf31 26bd
00000230: 076f 4dbc 4846 8f3c 2cdb fe3b a945 1dbb
00000240: afa8 e93c b9da 23bb 7136 193d 97cd cd3c
00000250: 0eef 16bd a74a a7bc 9587 983c eb38 933c
00000260: 6f44 0e3d 5f84 943c 5549 1fbd 60a4 fd3c
00000270: fb82 b93c 0c5a c6bc e597 05bd 1f78 fabb
00000280: 098d 163d d88d 0b3b a3d0 8abb 7fcc acbc
00000290: 7965 1dbd aad5 0f3d 1e53 213d e7f3 df3c
000002a0: a5e8 21bd d5e5 8b3c a25a e7bc 8428 17bd
000002b0: d765 12bd 8db0 e33c 6285 4b3c a774 37bc
000002c0: 50d5 1e3d d347 103d e2bd 57ba a5eb d73c
000002d0: 634d 4fbc dab3 a7bc 17a9 043d 35d1 2bbc
000002e0: 5d86 e139 f8ba 233c d070 9ebc 25b2 16bd
000002f0: 0d71 e23c 73e8 6bbc 2ee8 9fbb cac8 24bd
00000300: b85a 0cbc e38d f03c 6999 123c 9676 0cbd
00000310: 3ee2 27bd f45e 213d c72d 373c 4b1d b9bc
00000320: 5733 a83c 513d 83bc e761 27bd eb1a 023c
00000330: af72 de3a bef9 8bbc 568f 20bd fe88 c33b
00000340: acd3 003d f021 1c3d 3484 c33c 57f4 86bc
00000350: a35d d5bc af72 063d aad6 033a 4b5d d53c
00000360: 753f 79bc ee45 1e3c 0a56 0b3d e945 24bd
00000370: d75d 263d 3e0b 8fbc 017d f63c 6217 e9bb
00000380: b415 02bd 82fa a0bc 920c 9fbc 4828 813c
00000390: 4e29 01bd 98e5 bbbc 390e 59bb aae0 26bd
000003a0: db77 cf3c adbe 27bd 6ab1 16bd 2954 0d3d
000003b0: 57b0 19bd cbd0 0e3c a275 9ebc 3033 093d
000003c0: 6b6b 053d ddbb a4b9 8ef8 c5bc 8781 9ebc
000003d0: 06c6 023d eb32 92bc b3f2 fdbc f164 d5bc
000003e0: b8a1 bcbc 452f 6d3b 3a6e 143d 4775 613c
000003f0: 41d6 adbc bb3e c5bc e48b 153d 4a7e 363c
